scenario_runner0915/vtd_adv_lib_529/adv_model/model_lon.onnx (onnx, 279249 bytes, 6 tensors)

fc1.weight f4 [256, 11]
000000 25 44 ec bc 1f 45 f7 be 7b 6e 1e 3d 4b b5 64 3d
       -0.028841088 -0.48294923 0.03867958 0.055836957
000010 80 98 e3 bb af 13 85 be d6 74 01 bf e1 2c cb 3c
       -0.0069456697 -0.2599158 -0.505689 0.024801673
000020 37 1b a0 be d6 77 c3 bd 96 97 25 3e 71 bd 1e bd
       -0.31270763 -0.09544341 0.16171107 -0.038754884
000030 52 c4 b5 bb 0a 45 58 3e 7f cf 6a bc 8b 34 e3 bb
       -0.005547085 0.21120086 -0.0143316975 -0.006933754
000040 01 85 71 be 61 dd e3 be 90 a5 aa be 41 0c ab 3e
       -0.23585893 -0.44504836 -0.3332944 0.33407786
000050 24 03 08 3e 3e 16 ee bd 6e f1 34 3d 14 ca 8a be
       0.13282448 -0.11625336 0.044175558 -0.27107298
000060 69 bc fc 3e 9d 74 19 be 5e 1d 12 3e b6 7e 3a bd
       0.49362496 -0.1498589 0.14269015 -0.045530997
000070 07 91 8a bd e9 24 1a be ca c8 e5 be 04 92 09 be
       -0.06765943 -0.15053143 -0.44879752 -0.13434607
000080 5a d2 82 3d ff d4 ea bd 9b af 93 bc f1 75 85 3e
       0.063877776 -0.11466407 -0.018028071 0.26066545
000090 56 50 2a bd 9d d9 28 bd 1f 18 40 3d 82 aa 53 be
       -0.04158052 -0.041223157 0.046898004 -0.20670512
0000a0 ae 79 80 be c5 31 77 3e 6a 83 20 bc 70 6d 8e 3c
       -0.25092834 0.2414008 -0.009796957 0.017386168
0000b0 ed 00 af bc 86 49 39 bd 1e b2 0f 3e d1 1a 3e 3d
       -0.021362746 -0.045236133 0.1403279 0.046412293
0000c0 f9 ac 43 be 2e b2 09 3e e3 63 f7 bc 82 fa 4b be
       -0.19108953 0.13446876 -0.030198997 -0.1991978
0000d0 b6 32 02 3e 67 45 b5 bd 00 70 42 be 42 2e 58 3d
       0.12714657 -0.08851128 -0.18988037 0.05277849
0000e0 cb 19 7c 3d 36 04 c2 3e bc 8c fa bc 09 39 49 be
       0.061548036 0.37893838 -0.030584686 -0.19650663
0000f0 26 a9 c4 3d d4 08 bb 3d 86 1a 2b 3e 2c 6d ca 3d
       0.09602575 0.09132543 0.16709337 0.09884104
000100 a1 4c 91 bd a8 d2 d1 3d d4 08 86 3d f5 e7 19 bb
       -0.07094694 0.102452576 0.065446526 -0.0023484204
000110 5b 0a f5 3e 7d 2b 0e 3e 6a ad d4 bd e9 96 68 3c
       0.47859463 0.13883777 -0.103846386 0.014196136
000120 0b e8 07 3d 32 dd c0 3d 68 e3 ce 3d f0 e4 6f be
       0.033180278 0.0941719 0.10101968 -0.23427176
000130 dc 79 19 be 58 01 ec bd c3 cd 1d 3c b8 b7 6a 3e
       -0.14987892 -0.11523694 0.009631577 0.22921646
000140 a5 90 0a 3e fa 43 50 be 25 1b 8f 3e c9 12 08 bd
       0.1353174 -0.20338431 0.27950397 -0.03322104
000150 d0 9b 17 3e ee 4b 4e be bb 52 15 bd ef e6 98 3d
       0.14805532 -0.20146152 -0.03645585 0.07465922
000160 8b 92 de bd b6 86 73 bd 61 83 11 3f 54 1b 05 bd
       -0.108677946 -0.059454642 0.56841093 -0.032496765
000170 83 4f 2d 3d 35 c8 c5 bd 56 a5 c0 be b5 01 b6 be
       0.042312156 -0.09657327 -0.3762614 -0.35548177
000180 54 58 1d 3e 6f 24 71 bd e5 ef ae bb 32 48 c0 3d
       0.15365726 -0.058872636 -0.0053386563 0.0938877
000190 23 af 58 3c 09 4a 2b 3e 62 7b aa bd 8a cf 82 3b
       0.01322535 0.16727461 -0.08324315 0.0039920257
0001a0 60 01 a5 3d cb 6b 68 be 46 18 f4 bc 93 6c 93 3d
       0.08056903 -0.2269737 -0.02979673 0.07198443
0001b0 7f b1 30 be 9f 16 8c be 06 bf e4 bd 34 0b b2 bd
       -0.1725521 -0.2736101 -0.11169247 -0.08693543
0001c0 27 ab 86 be ba 16 fb 3c 81 cd 7a bd d8 ad e3 bd
       -0.26302454 0.030650485 -0.06123114 -0.111171424
0001d0 fb 9a 40 be 99 2e 25 be 32 e3 c9 3c 26 08 25 be
       -0.1880912 -0.16131057 0.024644468 -0.1611639
0001e0 eb 05 be be bb 5c 1b be fc e2 94 bc ef a8 87 3e
       -0.3711389 -0.15172093 -0.01817464 0.26496074
0001f0 20 7d 47 3d 8b 05 02 be b5 1c 43 3e e2 8e 05 bd
       0.048703313 -0.12697427 0.1905392 -0.032606967
000200 11 1b 5e 3e b9 1b 9c be 8c e9 e3 bd 8c bd 62 3e
       0.21690013 -0.304899 -0.1112853 0.22142619
000210 e5 53 a3 3c 87 90 eb 3c d4 e6 c7 be f2 8d de 3d
       0.019937465 0.02875544 -0.39043295 0.10866918
000220 4c 1a a7 3d 72 05 92 3e 6a 8e 99 3e ef 1b 72 3e
       0.081593126 0.2851978 0.29991466 0.23643468
000230 4b b1 1f be 88 96 d4 bc 53 1e f5 3e cd a1 3c 3e
       -0.15594976 -0.025950685 0.47874698 0.18421097
000240 4a 29 2e 3d 62 e4 7f 3e 50 d3 5f bc bd d2 3b bb
       0.042519845 0.24989465 -0.013661221 -0.0028659545
000250 a9 78 57 3e b5 b7 02 be c6 77 0e 3e 02 0f 40 be
       0.21042122 -0.12765391 0.13912877 -0.18755725
000260 2d 81 3e be 6d 62 53 bc 2e c8 63 3d bb c2 1a bd
       -0.18603964 -0.0129018845 0.055610828 -0.037783366
000270 3a 0c 27 3d 19 7a b1 bb d7 d6 5c be e7 2c be bd
       0.040783145 -0.0054161665 -0.2156633 -0.09285908
000280 05 fb 88 be 06 f6 62 be 76 18 be 3d fe 55 e1 3b
       -0.26754013 -0.22164163 0.09282009 0.006876706
000290 29 65 43 be fa 38 73 3d 00 68 7a 3d 51 36 54 be
       -0.19081558 0.05938051 0.06113434 -0.20723845
0002a0 67 c1 f0 3c 36 f5 50 3d 84 bd d2 3d b0 36 b3 3d
       0.029389096 0.0510151 0.102900535 0.08750665
0002b0 67 01 25 3e 7e 26 67 bb ab aa 5a 3d df 77 16 be
       0.16113816 -0.0035270746 0.053385418 -0.14694165
0002c0 44 6a c7 bd 75 09 68 bd 91 3d 89 bd 6a 95 2f 3d
       -0.097370654 -0.056649644 -0.06701196 0.0428671
0002d0 4c 2a 9d be 00 b1 a5 be 29 84 9e be 65 eb 70 be
       -0.30696332 -0.32361603 -0.30960205 -0.23527296
0002e0 c7 77 a5 3e 69 5c 0b be 13 93 21 be bd 8f ab 3d
       0.32317945 -0.1360947 -0.1577876 0.08377025
0002f0 6c 99 06 be 22 e6 af be f4 3c 82 3e 38 f9 9c bd
       -0.13144463 -0.34355265 0.2543713 -0.07664722
000300 c8 2a 7e 3e 5d 8d 74 3e c4 32 55 3e 4e 75 2e be
       0.24821007 0.23882051 0.20820147 -0.17036936
000310 04 78 13 be 69 7e 2f 3f 03 1d 91 3d cc 22 2b 3c
       -0.14401251 0.6855226 0.07085612 0.010445308
000320 f6 ff 0a bd bc 35 b6 bd bb b6 52 bd c0 67 d8 3c
       -0.03393551 -0.08896968 -0.051443797 0.02641666
000330 6c d9 6c bc f0 0f e7 bd 29 0f db 3d 12 41 6e 3d
       -0.014456134 -0.11282337 0.10696251 0.058167525
000340 5f e8 0f be dc 64 b1 3d b5 51 d5 bd a6 d8 3b 3d
       -0.14053486 0.086618155 -0.10415975 0.04586091
000350 c1 30 6b bc 5d ab 47 be 3e 31 3f 3e 20 a6 8c 3d
       -0.014354886 -0.19498964 0.18671128 0.06867623
000360 cb 75 fc bd ff 65 b5 3c f4 e0 91 3d 0b 8d 0b bd
       -0.12327155 0.022143362 0.071229845 -0.034070056
000370 f3 cb 39 3d 65 69 8f 3d 4f 6d a6 bd 7a 51 7f bd
       0.045360517 0.07002524 -0.08126318 -0.06233356
000380 6e 14 1d bd 24 7e 96 bd cd 9d cd be 53 62 5b be
       -0.03834956 -0.07348278 -0.40159455 -0.21424226
000390 99 2d 39 3e 7f 0f 21 3d e2 fd 2e be 96 e9 c8 bd
       0.180838 0.03932142 -0.17089036 -0.09810178
0003a0 ee 1f f1 bd b5 00 a5 bc dd 7c b4 be eb eb f0 bd
       -0.11773668 -0.020141939 -0.35251513 -0.11763748
0003b0 10 56 67 be 20 18 0d bc b0 5a 80 be 6b 09 7a 3e
       -0.22591424 -0.008611709 -0.2506919 0.24417655
0003c0 74 34 39 bd fc 68 d4 bd 2d 28 a7 bd 88 57 02 bd
       -0.04521604 -0.10371587 -0.0816196 -0.031821758
0003d0 8b ef ab bc 26 b8 8a bd 06 4f 88 3d 38 5c 45 3d
       -0.020988246 -0.06773405 0.066556975 0.04818365
0003e0 f4 cc 62 be 13 be 58 be a8 73 48 be ff ac 8f bd
       -0.22148496 -0.21166258 -0.1957537 -0.07015418
0003f0 a9 51 c2 be 85 02 5c 3d 2e ab 5b bd 17 d5 19 3c
       -0.37952927 0.05371334 -0.053630047 0.0093891835

fc1.bias f4 [256]
000000 85 12 10 be a4 70 8b be d8 73 99 3e fa ca 82 3e
       -0.14069565 -0.27234375 0.29971194 0.25545484
000010 73 c8 45 3d e3 63 b3 bb c3 bf aa be 5a d9 cd 3e
       0.048286866 -0.005474554 -0.33349428 0.4020489
000020 6c 30 d4 3d 22 f9 7c 3e ef 09 17 b9 f1 44 84 bd
       0.10360798 0.24704412 -0.00014404183 -0.06458462
000030 b1 6d c8 3c 7c a3 ab 3e 6a 57 2b 3d 1a 5f 5c be
       0.024466367 0.33523166 0.04183141 -0.21520653
000040 9a f3 24 be c0 0a 08 be 71 54 1b 3d f2 40 36 be
       -0.16108552 -0.13285351 0.037922326 -0.17798212
000050 95 75 01 3e cb 06 9c 3c 8f 5d 7f be f2 fd e1 3d
       0.1264251 0.019046208 -0.24938034 0.11034764
000060 ca ea b1 bd 1f 92 c9 be 19 d2 23 bd 6a 45 b4 be
       -0.086873606 -0.39369294 -0.039995287 -0.3520921
000070 2c e9 9e 3d 62 f4 ef 3e 59 0e d8 be e1 ac ef bd
       0.07759318 0.46866137 -0.42198446 -0.11702896
000080 59 44 e1 bd 45 8d 6f 3e 22 c3 a1 bd ee 81 b8 3e
       -0.109993644 0.23393734 -0.07898547 0.36036628
000090 10 b9 fd be 26 c5 ce 3d 41 5d bc 3e f7 1c 87 3e
       -0.49555254 0.10096197 0.36789897 0.26389286
0000a0 75 b1 ca bd 4b 57 2c be 60 f3 83 be 8a bf 1c bd
       -0.098971285 -0.16830175 -0.25771618 -0.038268603
0000b0 7a e6 d1 3d 8d d3 12 be 84 e0 e2 3e 63 2f 73 3d
       0.10249038 -0.14338513 0.44311917 0.059371363
0000c0 4e 00 3a be 88 09 35 bc 21 7e 2d be 19 cb d0 be
       -0.18164179 -0.011049636 -0.16942646 -0.4077995
0000d0 c6 f4 9d bd 02 e8 b9 3c bc e9 07 be 42 93 b2 be
       -0.077127025 0.022693638 -0.13272756 -0.34877974
0000e0 d2 2c 20 be 28 67 a4 be d0 c4 20 be c6 18 31 be
       -0.15642098 -0.32109952 -0.15700078 -0.17294607
0000f0 7f b0 2f 3d 76 dd 05 be f0 7c c0 bc 76 16 6d be
       0.04289293 -0.13072762 -0.023497075 -0.231531
000100 a5 8f 9c be e8 9f 24 3d f8 5f 85 3c 3f a0 cf 3d
       -0.30578342 0.04019156 0.016281113 0.101379864
000110 62 56 9b 3e 65 e3 1f be 3d 22 b0 3e ac e6 bf bc
       0.30339342 -0.15614088 0.34401122 -0.023425423
000120 02 9a a9 be e4 7f be be a3 70 7e 3e 2d a8 9c be
       -0.3312531 -0.37206948 0.24847655 -0.30597058
000130 13 f7 ed 3d 21 35 87 be 9c 4b 97 3e f8 63 b1 bc
       0.11619391 -0.26407722 0.29549873 -0.021654114
000140 e9 20 b7 3e c0 d3 98 3c 84 00 b6 bd 13 4a c7 3d
       0.35767296 0.018655658 -0.08886817 0.097309254
000150 a2 c3 c4 3e 77 58 c4 3e 43 61 39 bd c4 ce eb be
       0.38430506 0.38348743 -0.04525877 -0.46056187
000160 c2 48 d7 bc 12 5d 45 3e fd 47 45 3b 44 37 3e 3e
       -0.02627981 0.19273785 0.0030102723 0.1857577
000170 de 0a c3 3c 40 1b 81 be dc f1 25 be 6f 97 5a be
       0.023808893 -0.25216103 -0.16205543 -0.2134683
000180 12 1f 66 be 73 f3 df be 13 1a 11 be d9 56 0c be
       -0.2247279 -0.43740425 -0.14170103 -0.13705005
000190 73 9c b9 3e 72 49 8e be e0 b5 fe be c3 f7 83 be
       0.36252174 -0.2779041 -0.49748135 -0.25774965
0001a0 1c 3e c6 be 0a ba 60 3d f6 06 7a be 62 e4 fa 3e
       -0.3871926 0.05486492 -0.24416718 0.49002367
0001b0 85 42 a8 be fc a2 53 3e cc b9 98 bd de b2 82 be
       -0.3286325 0.20667642 -0.07457313 -0.2552709
0001c0 fe f5 fc bd c3 4d 3b be 14 94 af 3e a7 f2 27 bd
       -0.12351607 -0.18291382 0.34292662 -0.041002896
0001d0 20 1f 3f 3e 8d d9 d6 3d 08 95 89 3e 73 4e ed be
       0.18664217 0.10490713 0.26871514 -0.46348915
0001e0 9c 4a ab be 68 1e 43 be 40 63 a1 bd 0d a6 a5 bd
       -0.3345536 -0.19054568 -0.078802586 -0.08088312
0001f0 41 5f 23 3e 55 86 d1 3d 47 07 49 3e 32 06 8b 3e
       0.15954305 0.102307 0.19631682 0.27153164
000200 06 4c f4 bd d7 35 7f be 83 59 52 3e b3 dc 98 be
       -0.11928563 -0.24922882 0.20541959 -0.2985588
000210 56 b6 11 be 7e fe 05 3f a2 92 92 3e f7 52 bd bc
       -0.14229712 0.5234145 0.28627497 -0.02311085
000220 99 63 3b 3e 3b d1 86 be 83 aa c4 3e e6 0e d8 3e
       0.18299712 -0.26331505 0.3841134 0.42198867
000230 24 36 af be 0e ac f5 3b f8 d5 89 3e 3f 15 13 3e
       -0.34220994 0.007497317 0.26921058 0.14363573
000240 58 3b 14 be a0 8b 8d 3e d5 09 df bb cb a0 38 3c
       -0.14475763 0.27645588 -0.006806592 0.011268805
000250 13 e3 c0 3d b5 2d 9d 3e 08 86 6d be 66 70 10 bd
       0.09418311 0.30698934 -0.2319566 -0.03526344
000260 22 7c ed be 3c ce ef be 9a 21 92 3e c8 0d 25 3e
       -0.46383768 -0.46837032 0.2854126 0.16118538
000270 76 c9 7c 3e 39 99 38 bd 5f 2f 23 3e a4 cc b8 3e
       0.24686226 -0.045068 0.1593604 0.36093628
000280 2f d9 1f 3c 33 04 c3 be ff aa d5 bc 0b 8b 1e bd
       0.00975637 -0.3808914 -0.026082514 -0.03870682
000290 42 a3 ac be 94 7b a8 be 6c bf 09 be 7a 42 d5 3e
       -0.33718306 -0.32906783 -0.13451928 0.4165228
0002a0 ed 72 ad 3e e8 e5 9f 3e 9b 82 1f 3e 9f b7 b4 3e
       0.33876744 0.31230092 0.15577166 0.35296342
0002b0 4e ad 40 3e 54 1d 01 be a1 a0 19 3c dc a6 80 be
       0.1881611 -0.12608844 0.009376676 -0.25127304
0002c0 3d 6d 02 be 15 68 6b 3e 01 a6 4b be 57 8e d4 bd
       -0.12736984 0.22988923 -0.19887544 -0.10378712
0002d0 d2 9e f3 bd f2 fe aa 3e 63 72 d7 be 38 fe e0 bd
       -0.11895527 0.33397633 -0.42079458 -0.109859884
0002e0 fc 98 79 3e 36 00 0d 3e eb e9 31 be e2 c6 34 3e
       0.24374765 0.13769612 -0.17374389 0.17653993
0002f0 ac 10 f9 be 29 1c 6c be c1 d1 8d bc d5 e2 88 be
       -0.48645532 -0.23057617 -0.017311933 -0.2673556
000300 2f 5b 84 3e 22 ba 00 3e 16 c2 8b 3e 7e 21 e7 3d
       0.25850818 0.12571004 0.27296513 0.11285685
000310 8c 7b 69 3e 12 f7 8e be 96 e9 2a 3e 33 13 83 3d
       0.22801036 -0.27922875 0.16690668 0.06400146
000320 28 36 73 bb 0e 9a f4 3d 8f 2e 9b 3e 20 5a 3b be
       -0.0037111137 0.11943446 0.3030896 -0.18296099
000330 72 b3 8c be ad b2 a8 be d7 4a 6e 3e a4 4c 61 3e
       -0.27480656 -0.3294882 0.23270737 0.22001892
000340 b2 b5 8e 3d 1c 08 c7 bd 48 1c c2 be 30 c2 0e bd
       0.069682494 -0.097183436 -0.37912202 -0.03485316
000350 a0 68 c7 be ef 03 96 be f6 ab 96 3c 92 c1 9c bd
       -0.3894701 -0.29299876 0.018392544 -0.07654108
000360 a8 7e c7 3e 69 c0 be be c8 30 4e 3e 74 de 4b be
       0.3896382 -0.37256172 0.20135796 -0.19909078
000370 bd 97 3b be ce ea 8e 3e b9 7a 14 3e 84 bd 9d 3e
       -0.18319602 0.27913517 0.1449994 0.3080865
000380 95 4c 73 3e 7b 6b f0 bd fe c7 dd 3e 3b b9 e2 3d
       0.23759682 -0.1173925 0.43316644 0.11070486
000390 7f 57 7e 3e 0c 0f c1 3d 1f 61 b2 bb 0d e3 e5 bd
       0.24838065 0.09426698 -0.0054437066 -0.11224947
0003a0 0f 1a f5 be 85 e9 6c 3e de 91 cd bd 16 cd b3 be
       -0.47871444 0.23135956 -0.100375876 -0.35117406
0003b0 71 78 82 bd c5 25 ee 3d 04 ee 80 3e 3d 19 f8 3d
       -0.063706286 0.11628298 0.25181592 0.12114189
0003c0 3a aa 47 be 15 01 cb 3e fd 50 52 be 93 e1 99 3e
       -0.1949853 0.39649263 -0.20538707 0.30054912
0003d0 38 5b 2e 3e 7d 51 8d 3e 9d 12 80 be b0 52 17 3b
       0.17026985 0.27601233 -0.250142 0.0023090057
0003e0 46 a0 92 3e 76 b7 44 3e f6 d9 d0 3e d8 99 da 3d
       0.28637904 0.1921061 0.4079129 0.106738746
0003f0 84 23 91 be cd ca 2a 3e 21 21 c3 bd f2 43 fa 3d
       -0.2834741 0.16678925 -0.09527803 0.12219991

fc2.weight f4 [256, 256]
000000 35 03 17 bd 2d 7e a5 bd a7 7a 1e 3d 19 22 18 be
       -0.036868293 -0.08080707 0.03869119 -0.14856757
000010 e3 78 9e bd 64 b9 21 3e 23 38 31 bd 81 71 7a bd
       -0.07737901 0.15793377 -0.043266427 -0.061143402
000020 f8 50 99 3c fe 79 9b bd 02 d6 53 bd 8e 0c 80 3d
       0.018715367 -0.075916275 -0.051717766 0.062523946
000030 30 0f 43 3c 18 50 cf 3d ca 89 ee bc 5f 1d 01 be
       0.011905476 0.101226985 -0.029118437 -0.1260886
000040 82 11 82 bb d5 9f 05 3c 28 17 75 bd de 74 92 bd
       -0.0039693723 0.008155783 -0.059836537 -0.07151197
000050 11 8f b1 bd 51 b3 6c bc 63 e2 25 3e ed 74 ec bc
       -0.08669866 -0.014447049 0.16199641 -0.028864348
000060 05 68 33 bd e9 cd e8 bd 59 23 43 3d d4 fc 1d 3c
       -0.043800373 -0.11367399 0.047641132 0.009642798
000070 bd 65 79 3e 31 80 41 bd 52 c1 61 bd 80 bc 3a bd
       0.24355216 -0.047241393 -0.055116005 -0.045589924
000080 8d 00 c8 3d ca bd a7 bc bc ce 0d be a8 ec 90 3d
       0.0976573 -0.02047624 -0.13848394 0.070763886
000090 8e e3 dc 3d ac c9 2f 3e 08 b0 bc bd 38 cd 89 bd
       0.1078559 0.17166775 -0.09213263 -0.067285955
0000a0 87 0c f8 bc f4 45 d5 bd 44 91 2a 3d 9b a4 8b bd
       -0.030279411 -0.10413733 0.041642442 -0.068185054
0000b0 39 32 8e bd 34 47 2d be 06 ce 2a be 3a 69 e7 3b
       -0.06943173 -0.16921693 -0.16680154 0.0070621045
0000c0 92 ff a2 bd c6 2b de bd e0 13 83 3d ca bd 91 bd
       -0.079589024 -0.10848193 0.06400275 -0.071162775
0000d0 4b de 0f be 5f 40 17 3e 2f 9e 47 3d 0b 30 78 3c
       -0.14049642 0.1477065 0.04873484 0.015148173
0000e0 1f e7 a9 3d 78 b7 70 3d f0 8c bc bc 83 00 1b 3e
       0.08296036 0.05876872 -0.023016423 0.15136914
0000f0 40 b7 31 bb cf 2b 46 bd 0f 78 a9 3d 45 25 cb bc
       -0.0027117282 -0.048381623 0.082748525 -0.024798045
000100 77 88 47 be 2b e6 d0 bc 98 d7 d3 bd 4d 51 c8 bc
       -0.19485651 -0.025500378 -0.103438556 -0.02445283
000110 9b 5a ac bd 07 57 40 bc de c8 24 3e 44 49 a0 bd
       -0.08415719 -0.011739499 0.1609225 -0.07826474
000120 5c af e6 3d 06 ac 14 be 0c 39 89 bd 2d bb 47 bd
       0.11263916 -0.14518747 -0.06700334 -0.04876249
000130 a8 f9 93 bd af 89 37 3c 3e 80 27 be 31 d0 44 be
       -0.072253525 0.01120226 -0.16357514 -0.19220044
000140 c2 37 5c bc 7b 49 61 be a8 35 9e 3c c3 f6 85 be
       -0.013441028 -0.22000687 0.019312695 -0.26164827
000150 3e 96 cd 3d c3 dc f0 3d 56 40 b9 3c 5d 40 7c bc
       0.10038422 0.11760857 0.022613686 -0.015396205
000160 3f 39 0f 3e 05 70 17 3d e2 45 8c bd 65 fd a0 bd
       0.13986681 0.036972065 -0.068492666 -0.07860831
000170 13 04 b9 3d 34 ca ea 3d 0e f0 d8 3d e3 15 14 be
       0.0903398 0.114643484 0.10592662 -0.14461474
000180 32 f3 bc bd c3 38 c7 3c e9 87 70 3d ac 54 1f bd
       -0.09226073 0.024319058 0.058723364 -0.03889911
000190 0e 3c bb bc cc 72 80 3d 00 d8 ff bd a6 96 05 bd
       -0.022855785 0.06271896 -0.124923706 -0.032614373
0001a0 00 b5 1e bc cc 75 40 be 13 d9 24 3d ff cb 6b bd
       -0.009686708 -0.18794936 0.04024608 -0.057567593
0001b0 c1 9e d1 bd a8 06 0c 3e 0b ad 78 3c 9f e6 b2 be
       -0.10235358 0.13674414 0.015177975 -0.34941575
0001c0 e7 f6 a4 3c 94 29 63 bd b6 e5 29 be c2 8a 58 bd
       0.020137263 -0.055459574 -0.16591534 -0.052866705
0001d0 67 af 6b bd 90 37 d5 bd 3c fb 19 be 0a 1f 77 3d
       -0.057540324 -0.10410988 -0.15037245 0.060332336
0001e0 30 43 c0 bc cd 74 a1 bc 00 0a a9 3d 1b 36 41 3e
       -0.023469537 -0.019709015 0.082538605 0.18868296
0001f0 37 5b e3 3c 23 ff 0f bd cd 20 11 3d ba f0 71 bd
       0.027753456 -0.035155427 0.035431672 -0.059067465
000200 c7 a7 3e be 68 2e f6 3d 66 0d 43 3c 8b b0 c7 3d
       -0.1861869 0.1202057 0.01190505 0.0975047
000210 17 a3 5c 3e 1a 87 6e bd b6 5d fd bd d6 12 6d 3c
       0.21546589 -0.05823431 -0.123713896 0.014469823
000220 e8 41 12 be 25 9e 1a be ce ab 3f bd e0 3e a6 be
       -0.14282954 -0.1509939 -0.046794705 -0.32469845
000230 29 4b 4a be f8 b2 a3 3d f1 b1 32 3d f4 8d ed 3c
       -0.19755234 0.0799312 0.04362673 0.028998353
000240 79 a0 39 bd 5d af 86 3d 8f 9f af 3c b3 90 aa bd
       -0.045319054 0.06576417 0.021438388 -0.083283804
000250 ad 47 cb bc bb 6a 07 3e 7b 21 94 3d 5d 90 28 3e
       -0.024814451 0.13224308 0.072329484 0.1646132
000260 c2 5b e3 3b 87 90 60 bd 4d 1a 18 bd 9b c2 19 3d
       0.0069384286 -0.054825332 -0.037134457 0.037539106
000270 36 73 36 be 02 62 6a bc 90 68 3a 3e 4d 25 b5 3d
       -0.17817387 -0.014305593 0.1820395 0.08845005
000280 d0 c7 ea 3b 9e 8e 0f 3e 64 74 ce bd e2 44 9e 3c
       0.007164933 0.14019248 -0.100807935 0.019319955
000290 f7 33 ba bd f5 77 56 3b 87 70 02 bd 72 eb 04 bb
       -0.09091943 0.0032725309 -0.031845596 -0.0020281938
0002a0 92 fe 38 3d 01 b9 91 be bd 8b af bb 2a 3e 12 3c
       0.045164652 -0.2846146 -0.0053572343 0.008925954
0002b0 34 61 11 bc 80 7a 08 3e 83 7e fb 3d 68 12 44 bc
       -0.008873273 0.1332798 0.122799896 -0.011967279
0002c0 5a d1 a5 bd 82 c3 65 bd 53 ce 59 3b 18 e2 3c 3d
       -0.08096571 -0.056094654 0.003323455 0.046114057
0002d0 15 f0 79 bd c2 03 40 3c a8 c7 f2 bd 42 e6 66 bd
       -0.061019976 0.011719646 -0.11854488 -0.056371935
0002e0 3e 6c c5 bd c2 7c 24 3d ad c2 2a 3c ac 7e 63 bc
       -0.09639786 0.04015804 0.010422391 -0.013885181
0002f0 0c b7 b6 b8 76 87 17 3e 40 56 a0 3d c3 51 bd bc
       -8.7125314e-05 0.14797768 0.07828951 -0.023110276
000300 67 44 5a bd b2 62 3e 3e 28 9b 70 bc 48 be 9b 3c
       -0.05328789 0.18592337 -0.01468543 0.019011632
000310 47 df ac 3c bb 9b 66 bd 5a 52 9c bc d1 a4 86 3d
       0.02110256 -0.05630086 -0.019082237 0.06574405
000320 4d c0 c9 3c f8 eb 85 3d 89 3c 3c bd ea f6 00 3e
       0.024627829 0.06539148 -0.04595617 0.1259419
000330 a4 fb 85 bc 4c 60 b0 bb 51 43 d6 bd 0d b2 4d 3d
       -0.016355343 -0.005382573 -0.10462058 0.05021863
000340 c2 dc 07 be 4c 9f b1 bb f9 8a b0 bd 3d a5 20 bd
       -0.13267806 -0.005420601 -0.08620257 -0.039220084
000350 14 3d dc 3d 74 28 79 3d 87 c5 87 be 7e 14 d6 bc
       0.10753837 0.060829595 -0.2651789 -0.026132818
000360 88 60 2b be 25 36 8d bd 3b 5b 3f be fb bc 5d 3b
       -0.16736042 -0.06895093 -0.18687145 0.0033834565
000370 56 aa 9b bd d0 bb 0e 3c 39 c2 9c bd 68 6b 91 bd
       -0.076008484 0.00871177 -0.076542325 -0.07100564
000380 b4 a8 57 bd d5 ce c2 bc 71 5b 10 be f8 8c 1b bd
       -0.052651122 -0.023780266 -0.14097382 -0.037976235
000390 5f 28 b4 bd 30 ce 20 3c 14 c4 33 be 8f 97 c4 3c
       -0.08796763 0.009814784 -0.17555267 0.02399805
0003a0 95 8a 5b 3d a9 16 0f bd 51 7d be 3b 9b ee 44 be
       0.05359896 -0.03493372 0.0058132787 -0.19231646
0003b0 08 a9 87 bd 55 81 62 be 72 dc 0a bd 64 c7 75 3d
       -0.06624037 -0.22119649 -0.03390164 0.060004607
0003c0 ec 45 38 bd 85 40 22 bd d0 60 cb bb 8a 55 95 bc
       -0.044988558 -0.039612312 -0.0062066093 -0.018229265
0003d0 c4 6a 4f bd fb 75 4d bc c1 89 9e bc a1 a7 3e bd
       -0.05063893 -0.012540336 -0.019352796 -0.046546582
0003e0 b7 e7 c1 bd 48 f5 04 be 62 c4 21 bd 4c 68 c7 bd
       -0.09468024 -0.12984192 -0.039493926 -0.0973669
0003f0 31 02 27 3e 63 49 20 3d b9 06 5b bd cf 76 97 bc
       0.1630943 0.039132487 -0.053473208 -0.01848927

fc2.bias f4 [256]
000000 37 16 85 bd 93 04 a1 bc 63 66 85 bd 07 63 98 bc
       -0.06498378 -0.019655501 -0.06513669 -0.018601907
000010 b8 70 64 bd e2 7f 12 3d 2b d8 2f 3e 01 fa d7 3d
       -0.05577156 0.03576649 0.17172305 0.10545731
000020 27 23 21 3d df 3a 88 3c 5f 46 e8 bc 43 8a 18 3c
       0.039340165 0.016629634 -0.028353868 0.009310308
000030 c7 bd 45 3c 83 07 65 bd 26 34 a5 3d 55 ec dc 3c
       0.012069172 -0.055915367 0.08066587 0.02696816
000040 ae 36 56 3c 89 1f 59 bc ac c7 85 bc 9e 9e 2c bc
       0.01307456 -0.0132521475 -0.016330563 -0.010535864
000050 4d 78 d6 3b 46 f0 6c bd 79 59 8a bd 72 1e e7 bd
       0.0065451027 -0.05784633 -0.06755347 -0.11285104
000060 ad a2 9d bd 80 7f 1e bd ba ea a9 ba 52 51 db bc
       -0.076970436 -0.038695812 -0.0012963631 -0.026772175
000070 06 e3 a2 bd 69 bd 5d bd 43 16 cc bc 70 d5 4a bd
       -0.079534575 -0.054135714 -0.024912959 -0.049519956
000080 47 d6 d6 bd 1b 53 81 bc f9 77 56 3d 8c e6 d2 bc
       -0.10490089 -0.015786698 0.05236051 -0.025744699
000090 de ce 03 bd 90 1e 35 be d4 07 27 3c 8b 61 48 bd
       -0.032179706 -0.1768744 0.010194737 -0.04892115
0000a0 9d 28 80 bd 11 b1 ea bc 1c cc d1 3c 73 64 17 3c
       -0.06257746 -0.028648885 0.025610022 0.009240258
0000b0 cb e3 d4 bd 5d c8 3e 3d 17 8b d9 3d cd 93 cb bd
       -0.103950106 0.0465778 0.106222324 -0.099403
0000c0 b2 14 40 3d 42 ce 81 bd 1a 15 06 3c cf 7f 75 bd
       0.046894737 -0.06338169 0.008183742 -0.05993634
0000d0 f1 90 bd 3c 98 3f e5 3d cc a2 88 bc ee 36 9d 3c
       0.023140403 0.1119377 -0.01667919 0.019191232
0000e0 7a aa 09 3c 78 a8 33 3d 07 22 c2 bd 6e 12 eb bc
       0.008402461 0.043861836 -0.094791465 -0.028695311
0000f0 83 f2 c5 bc 1c 98 e1 bd ae e0 07 3e b3 46 9d bd
       -0.02416349 -0.11015341 0.13269302 -0.076795004
000100 a7 5b 81 bc 03 3a 59 bd 9b 3c 20 bd e7 c8 df 3b
       -0.015790774 -0.05303384 -0.039120298 0.0068293693
000110 4f f4 7d bd 9c cc bd bd 3e 06 de 3b ba 00 62 3e
       -0.06200057 -0.09267542 0.0067756465 0.2207059
000120 ec 05 b4 bc 5d 3e c5 bd 77 49 c9 3d 8c c4 89 3c
       -0.02197548 -0.096310355 0.098284654 0.016817354
000130 55 19 11 bd 15 f7 43 bd 23 ac b1 3c 11 1c b7 bd
       -0.03542455 -0.047843058 0.021688526 -0.089409
000140 91 1d 58 3c 2b 44 89 bd 62 b4 0a 3e 3d 8c 5f bd
       0.013190643 -0.06702455 0.13545373 -0.0545771
000150 35 f4 70 bc ab 37 98 bd ce 8c 20 3e 1d 24 4b bd
       -0.014706661 -0.07432493 0.15678713 -0.049594987
000160 ce 02 82 bd 75 12 67 3e 46 fb 5a bc 42 9a 19 bd
       -0.06348191 0.22565635 -0.013365572 -0.037500627
000170 ad 61 92 bc 38 64 0c bd 73 c7 2f 3d 30 32 a5 bb
       -0.017868841 -0.034275264 0.04291482 -0.005041383
000180 ec f0 20 bd 69 21 0b 3e af 30 16 3d 4d 8a ee 3c
       -0.03929226 0.13586964 0.036667522 0.029118681
000190 d7 64 b9 3b d1 fa 01 3e d5 8f 6f 3c cb 60 d4 bd
       0.005657773 0.12693335 0.014621695 -0.10370024
0001a0 94 c7 54 3d d4 4a 8f bd 50 a8 d6 bd 2c 4f 92 3d
       0.051948145 -0.06996694 -0.10481322 0.07144007
0001b0 97 d6 f5 3d 6c f3 35 bc d2 8b a5 bd d4 91 c2 3d
       0.120038204 -0.0111054 -0.08083309 0.09500471
0001c0 00 1e 24 3d d9 78 b0 bb bc df ee 3c 76 68 84 bd
       0.040067673 -0.0053855 0.02915942 -0.06465237
0001d0 e7 01 27 bd be bd 08 bd 56 db b2 bc 68 1b d5 3a
       -0.0407733 -0.033384077 -0.021833103 0.0016258778
0001e0 df 75 9a bc 47 85 01 3d 63 c3 ee 3c 55 5f a8 3c
       -0.018855033 0.031621244 0.029145902 0.02055327
0001f0 35 b7 a6 3c 50 42 b4 bd 9d 42 8a bd 96 42 95 bd
       0.020351032 -0.088017106 -0.06750987 -0.07288091
000200 8d 3d c4 3d 22 07 3d 3c f8 33 5e 3e 9e d0 d3 3c
       0.095820524 0.011537345 0.21699512 0.025856312
000210 65 38 11 3e b1 67 a1 bd 5f b5 29 bd 93 7c 4e 3c
       0.14181669 -0.07881106 -0.041432735 0.012602943
000220 b2 bd 23 bb 91 b6 26 bd 71 46 67 bd 30 8a 57 bd
       -0.0024984893 -0.040701453 -0.056463663 -0.05262202
000230 2a ee 42 bd 24 24 a6 bd bf 8a d7 3c d3 e2 0b 3c
       -0.047590412 -0.08112362 0.026311276 0.008537966
000240 d7 c1 b1 bd d2 fb 4a 3e 4c 3f 2e bd d5 f3 0e bd
       -0.0867955 0.19822624 -0.042540833 -0.034900505
000250 10 7f 1b 3e b9 38 f9 3d d3 55 63 3d 2f bd 3f bb
       0.15185189 0.12169022 0.05550177 -0.002925705
000260 5d ee ec 3c ef b7 23 bd 6c 57 ed bc d5 52 94 bb
       0.028922254 -0.039970335 -0.02897235 -0.004526476
000270 fa 6e 81 bd 7c 38 97 3c 04 d4 3b 3e cb b0 fe 3d
       -0.06319995 0.018459551 0.18342596 0.12436064
000280 fd 6e 17 3d 89 8f 57 bb b6 02 5b bc 53 1f 81 3b
       0.03697108 -0.003289195 -0.013367346 0.0039405017
000290 cd 1c b3 3c fb 53 6b bd 64 5b 7d bd db 42 00 3d
       0.02186432 -0.057453137 -0.061854735 0.03131376
0002a0 63 8f 20 3e c1 e5 4d bd 1f 9a 3f 3c 20 24 51 3c
       0.15679698 -0.05026794 0.01169446 0.0127649605
0002b0 f1 a5 ef 3c 85 7e e2 3d f4 5b f5 bc eb d8 1a 3e
       0.029253932 0.11059288 -0.029951073 0.1512181
0002c0 cc e5 f5 bc 1d 8f 84 3a dc 34 c0 bb ef 07 7c bd
       -0.030016802 0.0010113452 -0.0058656763 -0.061531004
0002d0 38 fb ae bc 77 f2 e8 3d a9 54 3d bd 3f ba 02 3d
       -0.021360025 0.113743715 -0.046223316 0.0319159
0002e0 0e 6c 4f 3c 7b 5f fa bd 3c a1 ca bc 6e 9c 4f bd
       0.01266004 -0.12225243 -0.024735086 -0.050686292
0002f0 bd 9e aa bd 11 72 3c 3e e5 ba 86 bd ed 89 1d be
       -0.08331058 0.18402888 -0.06578616 -0.15384646
000300 d1 17 92 3c e2 c5 0d bc b3 58 af bc 49 9b 27 3b
       0.017833622 -0.008653136 -0.0214046 0.0025574735
000310 35 66 51 3b 95 eb 9b 3c 28 d1 6e bb 79 10 f7 3c
       0.003195179 0.019033233 -0.0036440585 0.030159222
000320 b0 19 da 3d 55 6b d0 3c 73 40 fb bc 46 21 66 bd
       0.10649431 0.025441805 -0.03067038 -0.056184076
000330 bf 14 08 3d 41 23 8b bc ac 09 02 bd 0b ff 5a bc
       0.03322291 -0.016984584 -0.031747505 -0.013366471
000340 d3 90 1e 3d 54 36 54 3d 0f de a7 bd 15 05 15 bd
       0.038712334 0.051809624 -0.08196651 -0.0363818
000350 8b 2f 8e bd 20 d3 67 bd c8 65 c7 bb 2f e7 cd 3d
       -0.06942662 -0.05659783 -0.0060851313 0.100538604
000360 b7 a3 4e bd 6d 2d 48 bc e6 c6 65 bc d7 4d 4c bd
       -0.0504491 -0.012217862 -0.014024472 -0.04987892
000370 af 3e 4e bd 8d dd 4c bd 8e 04 a6 3c 3d 6e 8d bd
       -0.05035275 -0.050015975 0.020265844 -0.06905792
000380 f9 42 1a bd 87 5a 8b bd cb aa 9a bd 55 d6 c5 3d
       -0.037661526 -0.06804376 -0.075521074 0.09660021
000390 b4 b3 2f 3e 0c ce fa 3b ad 45 81 bd 19 4b c5 bd
       0.17158395 0.0076539572 -0.06312118 -0.09633464
0003a0 bb b2 6d bd 6a 0b a1 3c 51 67 67 bd 1a a5 7f bc
       -0.05803178 0.019658763 -0.056495015 -0.015603328
0003b0 3d a6 07 bd 4f 65 89 bd 37 1c 88 bd be ca a9 bd
       -0.03311752 -0.06708776 -0.066460066 -0.08290623
0003c0 d4 d6 3f bd 65 4a 16 3c 71 9d af bd 86 82 3f 3d
       -0.046835735 0.0091730105 -0.085749514 0.046755336
0003d0 de d6 12 3d 4b bb 15 bd e1 61 84 3d fe 7c 4e 3c
       0.035849445 -0.03655557 0.064639814 0.012603043
0003e0 25 25 ac 3d 26 23 e9 bd 15 47 9d bd f0 91 ec bc
       0.08405522 -0.11383657 -0.076795734 -0.028878182
0003f0 0e f9 2a bd 9c 0a fa bc 06 b6 01 bd b2 1b be 3c
       -0.041741423 -0.030522637 -0.03166773 0.023206566

out.weight f4 [3, 256]
000000 e2 e1 ba bb 47 88 1e 3d 7c 4e 97 3d 0a 71 cc 3d
       -0.005703197 0.038704183 0.073880166 0.09982498
000010 56 f1 06 3c 1e 3d cf bb 2a 30 52 3e 5d cf 3c 3e
       0.00823625 -0.0063244244 0.20526186 0.18438478
000020 33 cc fa bc 8f bf 4a be 5b 88 b9 bc 45 c7 46 bd
       -0.030614948 -0.19799636 -0.022648027 -0.048529882
000030 ab e9 a1 bd 3e b8 f6 3c cb 68 f4 3d d3 a3 f8 bd
       -0.07905897 0.03011715 0.1193405 -0.12140622
000040 69 20 45 3e 76 9a 79 3c c2 fe 2a be 1c 1b 3d 3d
       0.19250645 0.01523458 -0.16698745 0.04616843
000050 e7 dd 47 bd ac cd 60 be dc f1 89 bd 30 e2 69 bd
       -0.048795607 -0.21953458 -0.06735584 -0.057100475
000060 03 25 c2 bd 78 00 eb bd 71 5b 5b 3b 2d ef 20 3e
       -0.09479716 -0.11474699 0.0033471251 0.15716238
000070 20 4b b6 3c 95 a1 b1 3d da 53 e7 ba bd 75 88 3d
       0.02225262 0.086733975 -0.0017648891 0.06663082
000080 39 6a 4d bd ec 08 3e bd 0d 56 86 3d 16 56 52 3e
       -0.05015013 -0.046395227 0.06559382 0.20540652
000090 72 ea 4d bd 3e df 16 3d a9 ed 66 bd 18 21 50 3d
       -0.050272413 0.036833994 -0.056378994 0.05081281
0000a0 d2 a1 9d 3d 4d bc a9 bd 67 50 b2 bd 6e 5e 9f bb
       0.076968804 -0.08287869 -0.08706742 -0.004863552
0000b0 fa f4 e6 3d ca 64 e0 bc 16 9e bb 3e fa 69 8c 3d
       0.11277194 -0.02739181 0.36644047 0.06856151
0000c0 e3 a1 fe bd 9f 98 03 3d 0f 98 16 3d 11 ca 96 3c
       -0.12433221 0.032127973 0.036766108 0.0184069
0000d0 a0 d0 72 3d 37 67 0b be 46 d1 12 3d cf 25 82 bb
       0.05928099 -0.13613592 0.03584411 -0.0039717923
0000e0 4a 87 99 3d 8e 57 50 3e cc 55 a2 bc 35 f4 07 3b
       0.074965075 0.203459 -0.019816302 0.0020744924
0000f0 f0 36 4c bc dc be 14 bd 47 70 1e be 6f 13 fa bc
       -0.01246427 -0.03631483 -0.15472518 -0.030526845
000100 99 66 44 bc 5f df 9f 3d 05 6a 01 bc 47 32 9c ba
       -0.011987352 0.078062765 -0.007898812 -0.0011916839
000110 28 d3 7f 3d 34 03 1a bd 70 a0 f2 3d b4 e8 03 3e
       0.062457234 -0.03760071 0.11847007 0.12881738
000120 3a 99 c9 3c c7 8c 4a 3d af 90 e7 bd 88 90 87 3d
       0.024609197 0.049450662 -0.11306893 0.06619364
000130 cc ad c9 bc c6 de b5 3d 63 e8 41 3d d9 ac 3b bd
       -0.024619006 0.08880381 0.047340762 -0.045819137
000140 7a 3b 6d 3d ea 33 fd 3d 1d 14 1b be 8e dd 22 be
       0.05791805 0.123634174 -0.15144391 -0.15904829
000150 bf f7 40 bd 49 b2 49 bd e1 96 c9 bd 20 1f d6 3d
       -0.04711127 -0.04924229 -0.09843231 0.104551554
000160 42 a7 30 be 05 c6 85 3e ac 57 96 bd 94 51 49 bd
       -0.17251304 0.2612764 -0.07340941 -0.049150065
000170 d0 24 76 3d 79 65 21 bd 8e 7e cc 3d f7 b6 2c 3d
       0.0600937 -0.039403412 0.09985076 0.042166676
000180 92 53 ff 3c b0 4a 17 3e 1e 08 f5 bc d0 cf 18 3d
       0.03116778 0.14774585 -0.029911097 0.03730756
000190 59 88 c9 3d 05 34 63 be b3 af 28 b9 b2 fc 64 3d
       0.098404594 -0.22187813 -0.00016087182 0.05590505
0001a0 96 56 1f be a2 ce 0e bc be e1 8a 3d f8 01 f7 bd
       -0.15560374 -0.008716257 0.06781338 -0.120609224
0001b0 40 76 ac bd 9a 19 c2 3c 51 58 25 bc 74 e4 63 be
       -0.08420992 0.023693848 -0.010091857 -0.22255117
0001c0 da 98 ac bd 70 8b 2f bc 36 21 9b bd 09 db 07 bc
       -0.084275916 -0.010714397 -0.07574694 -0.008291968
0001d0 a0 fe 8c be 68 38 a5 bd 5f a6 d1 3d 66 6e a3 3d
       -0.27538013 -0.08067399 0.10236811 0.07980041
0001e0 7c 70 f7 3c 21 9d 94 bd e8 20 e5 3d 43 04 33 be
       0.030205004 -0.072565325 0.11187917 -0.17482094
0001f0 c5 e8 48 3e 1c b5 b2 bd a7 f6 91 bd 14 82 60 3d
       0.19620045 -0.0872595 -0.07127123 0.054811552
000200 4a 80 99 3e c3 30 d7 ba 38 05 d5 3e 97 96 8b bd
       0.2998069 -0.001641773 0.41605544 -0.06815832
000210 b7 ae 85 be a3 e6 d2 3d 6b 52 cc bc 4a 55 de 3d
       -0.2610986 0.10297897 -0.024941644 0.10856111
000220 c7 0d 93 bd c7 fd 6f 3d 20 80 04 3e 4f b9 24 3d
       -0.07180362 0.05859163 0.12939501 0.040215787
000230 ce 38 87 bd d8 fa bb bb fb 92 0a bd 4d 44 32 bd
       -0.066026315 -0.00573669 -0.033831578 -0.043522168
000240 c2 0d 4b 3d 63 4b 65 3e af 37 8e 3c 3e 96 6a 3b
       0.049573667 0.22392039 0.017360536 0.0035795118
000250 09 af 51 3e 6a e5 c8 bc ba 5b 1e 3e 83 e6 3c bd
       0.20476927 -0.024523456 0.15464678 -0.04611827
000260 e7 a8 e2 3b 14 c6 8a 3c 51 58 5f 3d fc 5d 02 3e
       0.0069171074 0.016940154 0.054527584 0.12731165
000270 e1 d0 eb 3d c1 c9 04 bd 7a 95 bd 3e 66 7d 7c be
       0.1151445 -0.03241897 0.37028104 -0.2465721
000280 e4 76 1f be 31 8a f6 bc 4b ad f7 bc 42 83 60 bd
       -0.15572697 -0.030095192 -0.030234 -0.054812677
000290 bb d6 97 3d 82 02 b7 3c 05 c6 b2 3d 32 ad 47 3d
       0.074140035 0.022340063 0.087291755 0.048749156
0002a0 c8 10 d2 3e ed 3a 55 bd 11 19 de 3c 7b f0 8a bc
       0.41028428 -0.05205815 0.027111562 -0.016960373
0002b0 4e 8f 49 3d 7c 51 9b 3e a6 d4 34 bb 87 18 a4 3e
       0.04920893 0.30335605 -0.0027592569 0.32049963
0002c0 72 81 91 3c 78 89 3a 3c 91 2b 22 bd 9c b4 95 3d
       0.01776192 0.011385314 -0.03959233 0.07309839
0002d0 f7 9f 05 3c ec d3 0f be 79 26 80 bd f9 06 78 be
       0.008155814 -0.14045686 -0.06257338 -0.2422141
0002e0 9b bb fe 3b 70 a0 72 3d 89 2f 1f 3e d2 33 db 3d
       0.007773829 0.059235036 0.15545477 0.10703243
0002f0 a4 66 25 be 8b 42 06 be 0c 89 4d 3d 19 3d 0e 3d
       -0.16152436 -0.13111322 0.050179526 0.034726236
000300 a6 a5 a4 bd a0 b1 13 bd fa 61 ba 3d 38 67 10 ba
       -0.080394074 -0.03605807 0.09100719 -0.0005508545
000310 a8 bc 0a 3d 3c 45 b8 3d 1a 86 12 3d 91 20 a5 bb
       0.033871323 0.089975804 0.03577242 -0.0050392826
000320 df 5b ee 3d 78 45 b3 ba ea 66 b3 3a 53 0c a3 3b
       0.11638617 -0.001367732 0.0013687287 0.0049758344
000330 ef ed 35 3e 0e b9 7a 3d e8 07 8e 3c 8e d8 30 3e
       0.17766546 0.06121164 0.017337754 0.17270109
000340 52 81 80 3c 44 0e ca bd e7 ee 0b bd 32 9e 98 bc
       0.015686665 -0.09866002 -0.034163382 -0.01863012
000350 7b 58 58 bd bb 7e e8 bb 88 f0 ae 3d 52 94 85 be
       -0.052818757 -0.0070951856 0.085419714 -0.26089722
000360 d9 37 cf 3c 80 3d be 3c 43 71 c3 bc e2 8f 0d 3e
       0.025295185 0.023222685 -0.023857718 0.13824418
000370 42 d7 d9 3d 4b ec 33 3d 8f b6 d9 bd 69 46 19 be
       0.1063676 0.04392652 -0.106305234 -0.14968266
000380 bc 7a f2 3b 00 b9 27 3e f9 54 fc bc 05 d7 08 3e
       0.007399885 0.16379166 -0.030802237 0.13363273
000390 94 f8 05 be 10 8a 2f 3c 05 31 29 3c 9d 66 2e bd
       -0.13083106 0.010714069 0.010326629 -0.04257833
0003a0 41 dd a7 bd 43 59 c9 3c 34 cb ab bc d8 fd e7 3c
       -0.08196498 0.024578696 -0.020970918 0.028319284
0003b0 f7 8b 50 bc fd 7d 8a 3d 98 1d 4e bd 16 a7 f3 3c
       -0.012728683 0.067623116 -0.05032119 0.029742759
0003c0 d3 67 a9 3d 7a 9d 93 3d 16 95 20 3d 4d a8 91 3d
       0.08271756 0.07207771 0.03920468 0.07112179
0003d0 de 2f 3d 3d dc 5f 97 3c c2 fb 80 be f1 cb 56 bd
       0.046188228 0.018478326 -0.25192076 -0.052440587
0003e0 c5 44 f1 bd 59 a3 cf 3c f0 a8 1f 3e 99 cd af 3c
       -0.11780695 0.025346445 0.15591788 0.021460341
0003f0 e6 83 53 3d e4 31 bb bd 28 5d 0c 3e 05 2e 3f bd
       0.05163946 -0.09140375 0.13707411 -0.046674747

out.bias f4 [3]
000000 a1 f0 0b be 7a b0 e9 bd eb ba 31 be
       -0.13666011 -0.11410613 -0.1735646
