scenario_runner0915/adv_lib/adv_model/1447_model_ckpt.onnx (onnx, 148705 bytes, 6 tensors)

fc1.weight f4 [128, 16]
0.13059096 0.0800246 -0.048653655 -0.025569778 -0.17783651 0.05190241 -0.1063975 -0.047690075
-0.15941195 0.06422934 -0.04935881 -0.017332597 0.05908537 0.18413648 0.046740353 0.046844605
0.12483218 0.04711677 -0.05939869 -0.059617683 -0.15238422 0.036270402 -0.13642438 -0.056919545
0.065532275 0.037851855 -0.031096648 0.009277297 0.02365692 0.086842485 -0.17914855 0.0033268102
0.091493264 0.37344286 -0.6104483 0.44204757 0.12760697 0.003911072 -0.036896236 0.09050994
0.35100904 0.21192783 -0.20360397 -0.043780807 -0.27546108 -0.5120413 -0.068509825 0.22030188
0.12880842 0.23800363 0.6997103 0.017034275 -0.09966708 1.1254859 0.1642601 -0.68739086
0.40741983 -0.07061007 0.036913846 -0.05057469 0.18268907 -0.10802229 0.6662468 0.38637418
0.14304565 -0.170719 -0.10279197 -0.17500901 0.2913531 -0.10594871 -0.08537512 0.13263373
0.6680606 0.12235069 0.017892903 0.03566215 -0.06191979 -0.1677268 -0.18737598 0.016421132
-0.19283777 0.08073925 -0.09916637 0.11029176 -0.1307443 0.19304813 0.47041696 0.37255013
-0.8213937 -0.09782721 -0.042867918 0.056875832 -0.39614433 -0.07495106 -0.17994988 0.54089683
0.18473019 0.20168757 0.077208474 0.40345028 -0.026610656 -0.022366142 -0.30712906 0.78629524
0.073687114 -0.27024156 -0.053379573 0.040085547 -0.29153925 -0.5853717 -0.28023824 -0.024269158
0.005286699 0.2056879 0.28262234 0.54004 -0.13270773 0.46861643 0.05140742 0.087604925
0.806557 -0.1213085 -0.23939985 -0.08020116 -0.7030693 -0.12630165 0.4369311 -0.11353972
-0.031677976 0.019369403 -0.10013303 -0.3399838 -0.08387586 0.025330724 -0.8668576 -0.99936056
-0.17681952 0.012184587 0.17067593 0.014037416 0.29718325 0.14979894 0.36208737 -1.8181452
0.26503697 0.06744206 0.0729032 -0.054952934 -0.19782756 -0.0698401 -0.15494166 -0.105066024
0.1162615 0.29215068 0.0019873218 0.020903712 0.014569118 -0.13243008 -0.14312263 -0.01827964
0.010279065 0.031507865 -0.024152108 0.11407486 -0.33892202 0.25649527 0.04387814 -0.05240366
-0.001679209 -0.10740097 -0.09660269 0.013981598 0.11281762 -0.087693475 0.09382057 -0.18577081
-0.01622696 0.009341516 0.8776851 0.16808823 0.04593639 0.28449386 -0.2601168 -0.5479222
0.7590959 -0.07580379 -0.066142 0.029206533 -0.38715696 -0.0053113615 -0.05812166 -0.8282076
-0.04387137 0.091012985 1.1411617 -0.012605496 -0.024851482 0.68772465 -0.19906394 -0.61238515
0.65479934 -0.030328108 0.0005055659 -0.036878817 -0.03179198 0.13452762 0.47019356 0.23241992
0.18135425 -0.22843432 0.6344933 -0.31668785 -0.0013565028 -0.23495728 -0.21439831 -0.1588999
0.9410518 -0.031559628 -0.06789704 0.03342987 -0.6127178 0.0632799 -0.097259775 -0.47157502
-0.283381 0.056530386 0.14389567 -0.07647829 -0.036411155 -0.1591304 -0.29329464 0.37084216
-0.82270163 -0.20969729 0.041932706 -0.011188957 0.010681028 -0.025911305 0.08487439 -0.29408818
0.12761252 0.046796072 -0.06420032 0.013975653 -0.10850782 -0.06036408 -0.3339449 0.2289628
0.46486554 0.047509544 -0.21078007 0.03309892 -0.67626214 0.10607315 0.025186423 0.22157289
00000000: a3b9 053e f0e3 a33d 0e49 47bd b677 d1bc
00000010: c61a 36be 9f97 543d efe6 d9bd ab56 43bd
00000020: e33c 23be ac8a 833d 772c 4abd 17fd 8dbc
00000030: 8003 723d 468e 3c3e d072 3f3d 21e0 3f3d
00000040: 04a8 ff3d 84fd 403d 0a4c 73bd ac31 74bd
00000050: 9c0a 1cbe 4690 143d d5b2 0bbe 7824 69bd
00000060: c935 863d 8c0a 1b3d 66be febc ceff 173c
00000070: 28cc c13c 79da b13d b872 37be 9d06 5a3b
00000080: d260 bb3d e733 bf3e 5746 1cbf 0f54 e23e
00000090: 67ab 023e 7328 803b 8220 17bd 475d b93d
000000a0: 75b7 b33e 9c03 593e 8f7d 50be 8153 33bd
000000b0: 3c09 8dbe 2315 03bf e14e 8cbd d196 613e
000000c0: 5be6 033e 39b7 733e 3720 333f 778b 8b3c
000000d0: 411e ccbd ec0f 903f cd33 283e d9f8 2fbf
000000e0: 5599 d03e 039c 90bd f932 173d 6827 4fbd
000000f0: d812 3b3e ca3a ddbd 268f 2a3f d6d2 c53e
00000100: 8f7a 123e f6d0 2ebe 9984 d2bd 9035 33be
00000110: 3c2c 953e a3fb d8bd 27d9 aebd 23d1 073e
00000120: 0506 2b3f 0093 fa3d 2394 923c 7912 123d
00000130: 9b9f 7dbd 93c0 2bbe 7ddf 3fbe 9c85 863c
00000140: 4477 45be 9f5a a53d bd17 cbbd a5e0 e13d
00000150: d5e1 05be 69ae 453e 7eda f03e e4be be3e
00000160: dc46 52bf a259 c8bd 4596 2fbd a2f6 683d
00000170: 6ed3 cabe f17f 99bd c844 38be 3778 0a3f
00000180: e929 3d3e 3087 4e3e 7a1f 9e3d 0991 ce3e
00000190: 97fe d9bc 3339 b7bc 0540 9dbe a54a 493f
000001a0: 45e9 963d 1a5d 8abe 8aa4 5abd be30 243d
000001b0: a244 95be ebda 15bf 637b 8fbe 1dd0 c6bc
000001c0: 0c3c ad3b d99f 523e e0b3 903e 1040 0a3f
000001d0: 89e4 07be 7eee ef3e 9690 523d 366a b33d
000001e0: 857a 4e3f 9770 f8bd 3c25 75be 8140 a4bd
000001f0: 5afc 33bf 3855 01be 6fb5 df3e 8387 e8bd
00000200: c4c0 01bd 95ac 9e3c 8c12 cdbd 5b12 aebe
00000210: 1bc7 abbd 6182 cf3c 61ea 5dbf 18d6 7fbf
00000220: 2d10 35be dda1 473c acc5 2e3e 31fd 653c
00000230: 6728 983e e564 193e 8463 b93e fbb8 e8bf
00000240: edb2 873e 101f 8a3d 464e 953d 5416 61bd
00000250: 4f93 4abe 5408 8fbd 07a9 1ebe db2c d7bd
00000260: 821a ee3d c694 953e ba3d 023b 433e ab3c
00000270: 4fb3 6e3c c09b 07be bd8e 12be 2fbf 95bc
00000280: 8669 283c 640e 013d a4da c5bc 15a0 e93d
00000290: 3087 adbe 5953 833e 91b9 333d 38a5 56bd
000002a0: e718 dcba 0af5 dbbd a2d7 c5bd 1313 653c
000002b0: ed0c e73d a398 b3bd 0025 c03d b43a 3ebe
000002c0: 67ee 84bc 280d 193c f9af 603f 521f 2c3e
000002d0: cc27 3c3d 2ea9 913e 072e 85be a144 0cbf
000002e0: 1c54 423f 043f 9bbd 7575 87bd 8a42 ef3c
000002f0: 7039 c6be ee0a aebb fa10 6ebd 6a05 54bf
00000300: 77b2 33bd 0465 ba3d 9611 923f 4887 4ebc
00000310: 5695 cbbc b90e 303f 6bd7 4bbe 46c5 1cbf
00000320: eea0 273f a772 f8bc f487 043a 3e0e 17bd
00000330: 4f38 02bd 9cc1 093e 36bd f03e 7dff 6d3e
00000340: eeb4 393e b0ea 69be 276e 223f e924 a2be
00000350: aecc b1ba a498 70be 3b8b 5bbe a8b6 22be
00000360: c5e8 703f ab44 01bd 9a0d 8bbd c2ed 083d
00000370: 13db 1cbf e498 813d 2230 c7bd 4872 f1be
00000380: 5017 91be 688c 673d 6359 133e a6a0 9cbd
00000390: dd23 15bd 14f3 22be b72a 96be 06df bd3e
000003a0: 939c 52bf e3ba 56be a1c1 2b3d e351 37bc
000003b0: 7aff 2e3c f243 d4bc a0d2 ad3d ba92 96be
000003c0: dbac 023e 3dad 3f3d 757b 83bd 23fa 643c
000003d0: 5939 debd 5340 77bd d3fa aabe 3975 6a3e
000003e0: db02 ee3e 5e99 423d bbd6 57be bc92 073d
000003f0: 841f 2dbf e13c d93d c253 ce3c 01e4 623e

fc1.bias f4 [128]
0.07735098 -0.14278853 -0.40437773 -0.41609716 -0.5602512 0.87092686 -0.48961726 -0.656429
0.31558836 -0.22078879 -0.29973847 -0.4034741 -0.7595145 -0.971994 0.8937497 -0.8140183
-1.0617747 -0.74307907 -0.3379065 -0.43392545 -0.34878457 -0.14617983 0.017569944 0.17434533
-0.6576611 -0.1984817 -0.5467695 -0.33700106 0.17645286 -0.97591615 0.26808998 0.32260385
0.07147887 1.241026 -0.92987853 -0.5950356 3.478628e-05 0.5709213 0.024792958 -0.2546404
-0.25851825 1.0896169 0.60913265 -0.6784072 -0.5228198 0.4051671 -0.39727104 0.028588196
-1.0040616 -0.18676712 0.9539453 0.3339139 0.92595255 0.04846374 -0.40690115 1.0288377
-0.08878544 -0.7568413 -0.19599897 -0.44225794 -0.13900071 -0.5781022 -0.07579768 -0.333439
0.38813558 0.07640632 0.6676155 -0.2796995 -0.2977523 -0.37142506 0.88742375 -0.34907222
0.8909931 -0.6202503 -0.36920348 -0.13456008 -0.3336049 -0.5113235 -0.8146703 -0.08867525
-0.659124 -0.13200374 0.5900238 0.0901495 0.81110626 -0.76608026 0.18154667 -0.4297391
-0.3845725 -0.15308069 0.9190567 1.0981749 -0.15721178 0.6615267 1.1622919 -0.93068135
0.25977 1.1083888 -0.3666639 -0.45668152 -0.7303339 0.06965766 0.027821474 -0.36891776
-0.15448052 0.010357595 0.5575128 -0.51585454 0.59987044 0.081300996 -0.5091496 0.76982546
-0.9320332 -0.11272219 -0.12910734 0.86233914 -0.37941968 0.8301215 -0.06800018 -0.28888026
-0.15315132 -0.38063058 -0.29702696 0.4197979 -0.6864998 -0.8153542 -0.37927228 0.3554395
00000000: 316a 9e3d 2837 12be 990a cfbe b00a d5be
00000010: 9f6c 0fbf 10f5 5e3f 1daf fabe bb0b 28bf
00000020: cc94 a13e 7516 62be 5277 99be 2894 cebe
00000030: 8b6f 42bf 99d4 78bf c8cc 643f 8163 50bf
00000040: 3ce8 87bf 6e3a 3ebf 1502 adbe 7a2b debe
00000050: e493 b2be 2ab0 15be d8ee 8f3c 9587 323e
00000060: 7a5c 28bf c93e 4bbe 16f9 0bbf 678b acbe
00000070: 0fb0 343e a4d5 79bf 1743 893e 552c a53e
00000080: 8463 923d f1d9 9e3f 850c 6ebf 4154 18bf
00000090: 7ce7 1138 e627 123f 9a1a cb3c 3a60 82be
000000a0: 815c 84be 9178 8b3f 1ef0 1b3f 18ac 2dbf
000000b0: 85d7 05bf 1072 cf3e 1c67 cbbe cb31 ea3c
000000c0: 1785 80bf e13f 3fbe c235 743f c3f6 aa3e
000000d0: 3a0b 6d3f ea81 463d 5955 d0be f4b0 833f
000000e0: 24d5 b5bd 5ac0 41bf f4b3 48be a26f e2be
000000f0: 3456 0ebe 81fe 13bf d03b 9bbd 84b8 aabe
00000100: b5b9 c63e eb7a 9c3d d9e8 2a3f c634 8fbe
00000110: fd72 98be 6d2b bebe 342e 633f 98b9 b2be
00000120: 2018 643f b9c8 1ebf 3d08 bdbe 1eca 09be
00000130: 43ce aabe 19e6 02bf 3c8e 50bf 5f9b b5bd
00000140: 5abc 28bf fd2b 07be cd0b 173f 4da0 b83d
00000150: a9a4 4f3f d61d 44bf 5fe7 393e c306 dcbe
00000160: b0e6 c4be 2fc1 1cbe 4d47 6b3f ff90 8c3f
00000170: 20fc 20be d059 293f fbc5 943f 2241 6ebf
00000180: 9300 853e afdf 8d3f 5fbb bbbe 29d2 e9be
00000190: 2af7 3abf ada8 8e3d dce9 e33c cae2 bcbe
000001a0: 2430 1ebe e7b2 293c 29b9 0e3f 0b0f 04bf
000001b0: 1c91 193f 2381 a63d a157 02bf 4813 453f
000001c0: ba99 6ebf e4da e6bd b734 04be 42c2 5c3f
000001d0: 4c43 c2be d882 543f ae43 8bbd 1de8 93be
000001e0: b3d3 1cbe 03e2 c2be eb13 98be c0ef d63e
000001f0: 73be 2fbf 0ebb 50bf fa2f c2be 2bfc b53e

fc2.weight f4 [256, 128]
-0.020150417 -0.10184285 -0.19482797 -0.21674375 -0.10880812 -0.15171675 -0.008782404 -0.16823438
-0.12322857 0.05277634 -0.015184565 0.09318073 -0.20659131 0.06995102 0.06096751 0.018242592
-0.0844766 -0.05282186 -0.081887186 0.0049879234 -0.1669886 0.01737294 -0.18977842 -0.08153722
-0.0028851987 0.0014941427 -0.27739033 -0.016853726 -0.114922985 -0.08757337 -0.100486435 0.05319821
-0.039162517 -0.07864893 -0.2295999 -0.115547754 0.110211484 0.088815324 0.08919852 -0.03528024
0.003789071 -0.020695526 -0.12280502 0.068130374 -0.035904527 -0.07892729 -0.04496746 -0.17020795
0.106372505 -0.16856667 -0.12473786 0.064129144 0.14811565 -0.017590044 -0.11734948 -0.061374605
0.14677717 -0.011650377 -0.15532471 0.08491784 0.06979377 0.18368249 0.06897343 -0.11386081
0.07259832 -0.083106995 -0.019049946 -0.13991286 -0.0016045716 -0.10300164 -0.27077612 -0.28492698
-0.07496831 0.021425594 -0.0030429407 0.02577008 0.050113507 0.08807732 0.109613106 0.0027055584
0.12327877 -0.091131724 -0.04852592 0.04992493 -0.05886441 0.13591202 0.11336448 -0.31357533
-0.057635106 0.048278 -0.054019775 0.036570396 -0.09630652 0.10871524 -0.02588096 -0.09767363
-0.04903133 -0.04629015 0.03962592 -0.05659695 -0.07027959 -0.101162285 0.18885913 -0.023821678
-0.18162964 -0.08908454 0.02334707 -0.027959084 -0.111683734 0.07790399 -0.012547953 -0.019038629
0.052372877 -0.17818205 0.009815636 -0.057160165 -0.08198539 -0.016435899 -0.1481417 -0.25756526
-0.01903866 0.26954606 0.05382422 -0.052708376 0.017618276 0.08323338 -0.19327934 -0.2488466
0.03581935 -0.026920283 -0.21390592 -0.066246055 -0.043477662 0.17622808 -0.08315813 0.08441693
0.09888953 -0.030509455 -0.05819883 -0.16591246 0.13164476 -0.06799901 0.10897012 -0.18476605
-0.11791296 -0.0047617415 0.056865785 0.16537768 -0.049705215 -0.0861278 0.12193352 -0.112810306
0.023612585 0.024542898 -0.026485153 0.06718263 0.027656538 -0.224301 -0.036641628 -0.030323138
0.058453944 -0.033635262 -0.051680278 0.011705806 -0.020401563 -0.047310278 0.076868705 -0.06668281
-0.14193903 -0.021244584 0.0058292067 -0.13117817 -0.030758899 -0.0527345 -0.10268591 -0.05173265
-0.07484627 0.026240766 0.12736976 -0.1379531 -0.008886381 0.034645855 0.043189514 -0.045741472
-0.08261857 0.14398949 0.063008025 0.012104733 -0.00951236 -0.087634765 0.008910012 -0.11405858
-0.08548544 -0.10070133 -0.10412058 -0.04162564 0.05608164 -0.0039679734 0.006274552 -0.061408553
-0.09366106 -0.0456678 -0.22343291 -0.116946414 -0.05280693 -0.07888687 -0.10683781 0.09778997
0.022221394 -0.07321405 0.16991067 -0.13581634 -0.13277163 -0.056223195 -0.08997114 -0.15846144
0.07714984 -0.13805309 -0.13643211 -0.12408794 0.085174106 -0.15343465 -0.1102631 -0.038211092
0.1614573 -0.1654274 -0.1502488 -0.04386104 -0.079860166 -0.18932348 -0.060385175 0.0057308697
-0.11681677 -0.028077895 -0.049838904 -0.27859598 -0.09569464 -0.075704254 -0.17686303 -0.03554119
-0.055138122 -0.16887958 -0.100078344 -0.13760728 0.08850417 -0.008301739 -0.057561923 -0.11492262
-0.114308186 -0.13436332 -0.14582646 -0.09313069 0.09093464 0.041995585 0.0018871814 -0.3160549
00000000: 7d12 a5bc fc92 d0bd fc80 47be 13f2 5dbe
00000010: cbd6 debd a35b 1bbe 12e4 0fbc a245 2cbe
00000020: 435f fcbd 012c 583d afc8 78bc 8ad5 be3d
00000030: ac8c 53be 7b42 8f3d 11b9 793d 7d71 953c
00000040: 1102 adbd bc5b 58bd 78b4 a7bd bc71 a33b
00000050: 0fff 2abe b251 8e3c 4655 42be fcfc a6bd
00000060: 9a15 3dbb 1cd7 c33a 1b06 8ebe d310 8abc
00000070: be5c ebbd ab59 b3bd d5cb cdbd 5ee6 593d
00000080: e068 20bd b112 a1bd 3c1c 6bbe 4da4 ecbd
00000090: 8fb6 e13d cfe4 b53d b7ad b63d 0382 10bd
000000a0: 1052 783b aa89 a9bc 3381 fbbd f087 8b3d
000000b0: a010 13bd a2a4 a1bd cd2f 38bd fe4a 2ebe
000000c0: d4d9 d93d be9c 2cbe 9076 ffbd 2456 833d
000000d0: a1ab 173e ff18 90bc ed54 f0bd f063 7bbd
000000e0: c14c 163e 39e1 3ebc 710d 1fbe 68e9 ad3d
000000f0: 09f0 8e3d 4317 3c3e f141 8d3d db2f e9bd
00000100: 6eae 943d 0034 aabd a20e 9cbc 5145 0fbe
00000110: 7d50 d2ba 86f2 d2bd 2ba3 8abe f3e1 91be
00000120: fc88 99bd ba84 af3c 136c 47bb c61b d33c
00000130: d243 4d3d e261 b43d d67c e03d bd4f 313b
00000140: 9479 fc3d 45a3 babd 1dc3 46bd 157e 4c3d
00000150: cf1b 71bd 852c 0b3e a32b e83d f28c a0be
00000160: ca12 6cbd 27bf 453d d743 5dbd d7ca 153d
00000170: 5a3c c5bd 19a6 de3d 4f04 d4bc 1d09 c8bd
00000180: 13d5 48bd be9a 3dbd ca4e 223d 34d2 67bd
00000190: bfee 8fbd 2c2e cfbd 4a64 413e ae25 c3bc
000001a0: 1ffd 39be f571 b6bd 5b42 bf3c 730a e5bc
000001b0: 71ba e4bd 218c 9f3d ee95 4dbc e6f6 9bbc
000001c0: f184 563d 5b75 36be c3d1 203c c720 6abd
000001d0: f5e7 a7bd 94a4 86bc 75b2 17be 98df 83be
000001e0: f7f6 9bbc f101 8a3e c976 5c3d bde4 57bd
000001f0: 3454 903c 4376 aa3d 05eb 45be a5d1 7ebe
00000200: 50b7 123d ed87 dcbc 270a 5bbe 03ac 87bd
00000210: a215 32bd 2275 343e cf4e aabd c9e2 ac3d
00000220: 9886 ca3d f7ee f9bc e561 6ebd f5e4 29be
00000230: e2cd 063e 1143 8bbd ba2b df3d 5033 3dbe
00000240: 5a7c f1bd 6208 9cbb 19ec 683d c458 293e
00000250: b297 4bbd c663 b0bd 48b8 f93d 1709 e7bd
00000260: 2e6f c13c 300e c93c 64f7 d8bc 0c97 893d
00000270: f78f e23c 29af 65be 8815 16bd 3b68 f8bc
00000280: 676d 6f3d 21c5 09bd b3ae 53bd b5c9 3f3c
00000290: 2e21 a7bc 6cc8 41bd 576d 9d3d ff90 88bd
000002a0: 7758 11be 1f09 aebc ee02 bf3b 9253 06be
000002b0: 16fa fbbc 2200 58bd fe4c d2bd 9de5 53bd
000002c0: 0049 99bd e0f6 d63c 386d 023e 9443 0dbe
000002d0: 2f98 11bc d0e8 0d3d 7de7 303d 695b 3bbd
000002e0: ed33 a9bd fb71 133e 5a0a 813d ee52 463c
000002f0: bbd9 1bbc db79 b3bd 4dfb 113c 8b97 e9bd
00000300: fe12 afbd 803c cebd 2c3d d5bd a67f 2abd
00000310: ddb5 653d c605 82bb c29a cd3b 8987 7bbd
00000320: 5fd1 bfbd 290e 3bbd 99cb 64be 9a81 efbd
00000330: 144c 58bd 708f a1bd c8cd dabd 1c46 c83d
00000340: a409 b63c 3ff1 95bd 10fd 2d3e 7013 0bbe
00000350: 49f5 07be 4b4a 66bd ca42 b8bd b743 22be
00000360: bc00 9e3d ca5d 0dbe dcb4 0bbe d121 febd
00000370: c36f ae3d f91d 1dbe 9fd1 e1bd 3c83 1cbd
00000380: 1055 253e cd65 29be d2da 19be a2a7 33bd
00000390: ba8d a3bd 04de 41be 7256 77bd 05ca bb3b
000003a0: a13d efbd 9d03 e6bc e123 4cbd 22a4 8ebe
000003b0: 8dfb c3bd d50a 9bbd 951b 35be a493 11bd
000003c0: 83d8 61bd c5ee 2cbe e0f5 ccbd ece8 0cbe
000003d0: ad41 b53d 0404 08bc 0dc6 6bbd 8d5c ebbd
000003e0: 691a eabd 8a96 09be 8853 15be 4ebb bebd
000003f0: f13b ba3d 9003 2c3d 4d5b f73a f3d1 a1be

fc2.bias f4 [256]
-0.16085413 -0.054285455 -0.082413696 -0.08638839 0.34384882 -0.09088992 -0.1483315 -0.189578
-0.17743774 -0.015016083 -0.175768 -0.1683441 -0.10501611 -0.1310725 0.5234506 -0.16696689
-0.1335417 -0.15187173 -0.068048045 0.8734423 -0.29801017 0.10764094 -0.03316211 -0.053288754
-0.082053564 -0.08077085 0.5671956 -0.079155065 1.1169467 -0.06355071 -0.0420447 -0.3596722
0.024775216 0.7830166 0.45671335 1.5480251e-05 0.9316343 0.86005116 -0.040995326 -0.09636616
0.44223166 0.00961045 0.0055655167 -0.082355194 0.70873547 -0.005545107 -0.05602839 0.33912477
0.83943367 -0.10055164 -0.015558553 -0.08753347 -0.10921538 0.04041723 -0.15647925 0.13332619
0.26927987 1.1419723 -0.03209277 -0.105010204 -0.0057394444 -0.04731734 0.86548585 -0.17325534
-0.12892585 0.3000841 -0.06748184 -0.06523293 0.58025056 0.7421899 -0.16971178 0.4221489
-0.08452933 -0.027307894 0.986789 -0.06602032 -0.026416587 0.62978804 1.0931094 -0.11626675
-0.08095982 -0.123999655 -0.09963455 -0.099813394 -0.10791473 -0.0383278 -0.12092839 -0.037891027
0.5016023 0.9535655 -0.0870466 1.1545813 0.008900289 0.8528855 -0.10705025 1.1498926
0.031217512 0.15231414 0.65221405 0.28773502 0.048222356 -0.027582334 -0.044278234 -0.3251256
0.013033513 -0.022899559 -0.005464287 0.19093077 -0.118358105 0.30113572 -0.32481992 -0.118527554
-0.07060753 0.42948398 -0.04512144 -0.2819847 0.91016483 -0.079531245 -0.010933993 1.0717244
-0.14354411 -0.17090358 0.16691919 -0.030059686 -0.11598438 0.50647026 0.07943807 -0.11024622
-0.13013552 0.5105558 -0.09466233 -0.10127444 0.7198844 -0.117374174 -0.124439746 0.050308734
1.0839102 0.9909995 -0.12579983 -0.07189791 0.7222653 -0.24348983 0.9048199 0.05217257
-0.14216405 -0.079486534 0.67382854 0.018388128 -0.027307123 -0.011068191 -0.10080572 -0.29397342
-0.012885362 -0.037744965 -0.033272456 -0.072219715 -0.022563735 0.27265286 0.18713737 -0.11518811
-0.02239499 -0.12992223 -0.17762576 0.3926761 -0.13614123 -0.057718523 0.6461288 0.029449342
-0.6236161 -0.070023976 -0.042280152 -0.0066481717 0.73677385 -0.096058875 0.47989544 -0.07064219
1.0852661 -0.060074765 -0.07484573 -0.05880738 -0.16070344 -0.22874895 0.030543264 0.048058696
-0.027988696 -0.13123311 -0.10173307 -0.071706794 0.481909 0.694375 -0.28074047 -0.09941067
-0.14010122 -0.018740265 0.0055952584 -0.085281014 -0.03338337 -0.0727087 1.066105 -0.06629065
-0.06673403 -0.04100496 -0.11234004 0.79238534 -0.21144345 -0.07757115 0.6396797 0.017999554
0.009920034 -0.17325686 -0.034021944 -0.0858242 -0.11011135 -0.031968623 -0.055204045 -0.10270526
-0.050266556 -0.069735326 -0.022110943 -0.053890273 -0.0039053308 0.9942737 -0.068735905 -0.12980588
-0.15492949 -0.10146687 -0.17048618 -0.1844632 0.10442126 -0.10562751 0.01035373 1.1905036
-0.0077669313 -0.10547321 0.04547498 -0.023176521 -0.051830217 -0.09080472 0.9251395 -0.01215684
1.1700248 -0.041849487 -0.05838641 -0.15742074 -0.09340024 -0.16874017 0.50923926 -0.051687766
-0.11507339 -0.0017087613 -0.025825216 -0.10599228 -0.10132654 0.027260844 0.008594545 0.6634877
00000000: f2b6 24be 6d5a 5ebd 83c8 a8bd 65ec b0bd
00000010: f40c b03e 7f24 babd 36e4 17be bc20 42be
00000020: 3db2 35be 0406 76bc 87fc 33be 6562 2cbe
00000030: b012 d7bd df37 06be dc00 063f 5ef9 2abe
00000040: 28bf 08be 4384 1bbe c65c 8bbd ea99 5f3f
00000050: ca94 98be da72 dc3d fed4 07bd 4f45 5abd
00000060: b30b a8bd 306b a5bd bb33 113f 0d1c a2bd
00000070: 1cf8 8e3f e026 82bd 1037 2cbd f426 b8be
00000080: 65f5 ca3c c773 483f 55d6 e93e 96db 8137
00000090: 967f 6e3f 502c 5c3f b7ea 27bd 9f5b c5bd
000000a0: 306c e23e 2675 1d3c f05e b63b d7a9 a8bd
000000b0: b06f 353f bbb3 b5bb 067e 65bd c3a1 ad3e
000000c0: 20e5 563f 05ee cdbd 4de9 7ebc bf44 b3bd
000000d0: 50ac dfbd 8a8c 253d 193c 20be a986 083e
000000e0: 0ddf 893e 262c 923f b573 03bd 970f d7bd
000000f0: f311 bcbb d4cf 41bd 7b90 5d3f d969 31be
00000100: 2305 04be a0a4 993e eb33 8abd d898 85bd
00000110: 4d8b 143f 2800 3e3f edc8 2dbe e723 d83e
00000120: b71d adbd ceb4 dfbc 349e 7c3f a935 87bd
00000130: 9967 d8bc ca39 213f 02eb 8b3f 431d eebd
00000140: 43ce a5bd 88f3 fdbd 330d ccbd f76a ccbd
00000150: 6602 ddbd 9cfd 1cbd 4ea9 f7bd 9f33 1bbd
00000160: 0269 003f de1c 743f 7d45 b2bd 52c9 933f
00000170: 85d2 113c b456 5a3f 293d dbbd ae2f 933f
00000180: debb ff3c 3df8 1b3e 80f7 263f 0152 933e
00000190: ce84 453d 59f4 e1bc 185d 35bd dd76 a6be
000001a0: 848a 553c db97 bbbc c30d b3bb 5b83 433e
000001b0: bc65 f2bd 762e 9a3e cc4e a6be 93be f2bd
000001c0: ae9a 90bd 53e5 db3e 42d1 38bd 4c60 90be
000001d0: 9000 693f 47e1 a2bd 7e24 33bc 442e 893f
000001e0: 3afd 12be 5901 2fbe ddec 2a3e bb3f f6bc
000001f0: 3889 edbd 09a8 013f 6db0 a23d c5c8 e1bd
00000200: 3f42 05be c9b3 023f 53de c1bd f968 cfbd
00000210: 584a 383f df61 f0bd 44da febd 8810 4e3d
00000220: 92bd 8a3f 25b2 7d3f acd1 00be 363f 93bd
00000230: 61e6 383f 6655 79be 47a2 673f e8b2 553d
00000240: 7493 11be d6c9 a2bd 0780 2c3f b3a2 963c
00000250: 30b3 dfbc 5c57 35bc 3b73 cebd af83 96be
00000260: 201d 53bc 779a 1abd b348 08bd eee7 93bd
00000270: 95d7 b8bc 2899 8b3e f0a0 3f3e bee7 ebbd
00000280: b375 b7bc 550a 05be 87e3 35be d70c c93e
00000290: 9b68 0bbe 426a 6cbd b268 253f bf3f f13c
000002a0: 4ea5 1fbf bb68 8fbd f42d 2dbd e8d8 d9bb
000002b0: 369d 3c3f 84ba c4bd dbb4 f53e daac 90bd
000002c0: 00ea 8a3f f510 76bd b848 99bd 02e0 70bd
000002d0: 718f 24be 2a3d 6abe de35 fa3c 32d9 443d
000002e0: 8d48 e5bc f961 06be 6e59 d0bd 03db 92bd
000002f0: c7bc f63e 8fc2 313f 37bd 8fbe d297 cbbd
00000300: b276 0fbe 2f85 99bc 6e58 b73b d0a7 aebd
00000310: 00bd 08bd 4de8 94bd 2176 883f 64c3 87bd
00000320: daab 88bd d1f4 27bd 8912 e6bd c4d9 4a3f
00000330: a284 58be a0dd 9ebd 0cc2 233f cd73 933c
00000340: a387 223c 3f6a 31be 985a 0bbd 99c4 afbd
00000350: 0f82 e1bd 88f1 02bd a31d 62bd 2357 d2bd
00000360: 4ee4 4dbd 65d1 8ebd 0222 b5bc 0cbc 5cbd
00000370: 94f0 7fbb b988 7e3f 69c5 8cbd d5eb 04be
00000380: d6a5 1ebe ddcd cfbd ee93 2ebe ece3 3cbe
00000390: d0da d53d 3c53 d8bd b1a2 293c 6c62 983f
000003a0: be81 febb 5702 d8bd f943 3a3d b0dc bdbc
000003b0: ec4b 54bd d3f7 b9bd f1d5 6c3f 7c2d 47bc
000003c0: 5fc3 953f 5e6a 2bbd 9726 6fbd e732 21be
000003d0: a048 bfbd 39ca 2cbe 815d 023f 8db6 53bd
000003e0: 99ab ebbd 84f8 dfba 678f d3bc 7b12 d9bd
000003f0: 4a84 cfbd 2252 df3c 22d0 0c3c 54da 293f

out.weight f4 [7, 256]
0.0304153 0.055510335 -0.11168452 -0.013197967 0.29342222 -0.15426487 -0.12460536 0.046313576
0.107983105 -0.035837747 0.08200469 0.16402528 -0.02185664 -0.0849068 0.32084566 0.0087426305
0.14384961 -0.03568308 0.14310332 0.1975665 -0.3600641 0.35195616 -0.0164756 0.013313793
0.15419497 0.08888598 0.3791666 0.09715516 0.2950054 0.15600741 -0.09255588 -0.34736878
0.011921852 0.2637136 0.14971444 0.09450633 0.29057643 0.19697027 0.039673448 0.01085138
0.41020262 0.030742992 0.1642084 0.018902171 0.23932604 0.11639151 -0.15209097 0.6314903
0.4148598 -0.03295957 0.046348456 0.024724431 -0.03558755 0.52326554 -0.07592278 0.3457633
0.2752065 0.45846978 -0.06198221 -0.070309274 -0.023371734 0.06587591 0.21073273 0.010797307
0.10436451 0.1150898 0.021158997 0.04107524 0.3001347 0.18430154 -0.024600621 0.5464144
0.18380606 -0.06371655 0.2419311 -0.145335 0.05203055 0.28577042 0.26285648 -0.006827055
-0.032602444 -0.01916188 0.10410175 -0.19170138 -0.06027061 -0.6045175 0.054349963 -0.014762486
0.24912533 0.46749964 0.13741922 0.2827019 -0.03888656 0.31469107 -0.023252686 0.38979417
0.13632442 0.42195946 0.38860458 0.45785797 -0.005101281 0.104339816 0.07779579 -0.028506303
0.11955429 0.0027243746 0.02508926 0.28202832 0.14869086 0.24563408 0.1336128 0.051307213
0.027307421 0.20272905 0.028763114 0.054888178 0.2950781 -0.18225569 0.021980686 0.28317383
-0.0037929483 -0.10561912 -0.12677625 -0.03105482 0.052933436 0.14438231 1.1668409 0.17102702
-0.010154062 0.37154216 0.015323778 -0.04082022 0.10355609 -0.045817994 0.02493085 -0.060767535
0.2904496 0.19198562 0.016852593 -0.12270439 0.062057354 0.025257904 0.18739274 0.14941248
0.041326627 -0.16865642 0.22601555 -0.04944252 0.06036704 0.07403909 -0.06433523 -0.22688013
0.1437405 -0.06949137 -0.2314055 0.31498083 0.03179484 0.027197085 0.38665658 -0.05585363
-0.35333937 0.15891741 0.051576097 0.61957204 -0.027913192 -0.21096669 0.20424211 -0.016048552
-0.81965846 -0.09237159 -0.11882521 -0.14817111 0.07574092 0.057587836 0.2710147 0.0068908557
0.43687084 -0.11219013 0.32026225 0.07765035 -0.5322462 0.095856346 0.42297405 -0.11455394
0.06612046 -0.056373846 0.075468324 0.08395203 0.11825424 0.3102737 -0.458135 0.013413001
0.024640758 0.119956516 0.08488852 -0.12503527 0.05162409 -0.11434359 0.37711146 0.2543349
-0.004452094 0.050997898 0.0052157254 0.31902346 -0.38965535 -0.1514482 0.3324868 0.14207926
0.041663438 0.104379855 -0.0600424 -0.028962905 0.5527434 0.13071959 0.16311175 0.05902296
-0.00837506 -0.00461744 -0.26659146 -0.020253379 -0.2565154 0.25297758 0.023128483 0.017679311
0.020722978 -0.034676682 0.0040887827 0.04434487 -0.030015295 -0.042897172 -0.0017021163 0.46030465
0.04289083 0.028680237 0.28108826 0.008177794 0.09360059 -0.14034288 0.2052612 -0.17912573
0.13029934 0.13519622 -0.07013135 0.005033672 0.10179628 0.06786647 0.54896826 0.09495995
-0.33935988 -0.008066795 -0.006990141 -0.095705464 0.017668167 0.0966262 0.20710379 0.38327917
00000000: 8229 f93c ce5e 633d dbba e4bd 493c 58bc
00000010: 703b 963e 9cf7 1dbe 1831 ffbd 4eb3 3d3d
00000020: 3f26 dd3d 9aca 12bd 13f2 a73d 3ef6 273e
00000030: b20c b3bc 9ee3 adbd e245 a43e 403d 0f3c
00000040: 504d 133e 6c28 12bd ad89 123e df4e 4a3e
00000050: 525a b8be 9933 b43e d6f7 86bc 1822 5a3c
00000060: 49e5 1d3e da09 b63d 2022 c23e 49f9 c63d
00000070: f30a 973e 68c0 1f3e f08d bdbd 52da b1be
00000080: df53 433c 7805 873e be4e 193e 898c c13d
00000090: 6fc6 943e 93b2 493e a080 223d fdc9 313c
000000a0: 1406 d23e bad8 fb3c 3f26 283e bad8 9a3c
000000b0: e311 753e ac5e ee3d bcbd 1bbe 59a9 213f
000000c0: 8168 d43e 9d00 07bd e1d7 3d3d e48a ca3c
000000d0: 40c4 11bd bbf4 053f 677d 9bbd e307 b13e
000000e0: dee7 8c3e 8dbc ea3e 0fe1 7dbd 4ffe 8fbd
000000f0: 1476 bfbc f3e9 863d 52ca 573e 30e7 303c
00000100: 0fbd d53d 33b4 eb3d a255 ad3c 833e 283d
00000110: 41ab 993e 8bb9 3c3e 3e87 c9bc d0e1 0b3f
00000120: a837 3c3e d37d 82bd c9bc 773e b3d2 14be
00000130: fc1d 553d 8050 923e 2095 863e 7db5 dfbb
00000140: 248a 05bd 60f9 9cbc 4c33 d53d 5e4d 44be
00000150: 51de 76bd a9c1 1abf 119e 5e3d 5bde 71bc
00000160: b61a 7f3e 1d5c ef3e a0b7 0c3e 4ebe 903e
00000170: 8347 1fbd 301f a13e 6b7c bebc 1a93 c73e
00000180: a198 0b3e 120b d83e 2ef7 c63e 5c6c ea3e
00000190: a628 a7bb 1db0 d53d 6653 9f3d 0d86 e9bc
000001a0: e1d8 f43d 6c8b 323b fe87 cd3c 0466 903e
000001b0: 6b42 183e 8087 7b3e cbd1 083e 8327 523d
000001c0: d0b3 df3c 3498 4f3e 9fa0 eb3c 6dd2 603d
000001d0: 7a14 973e 3ca1 3abe d710 b43c 29fc 903e
000001e0: 1d93 78bb d64e d8bd a2d1 01be ae66 febc
000001f0: bbd0 583d f5d8 133e 0b5b 953f b521 2f3e
00000200: 395d 26bc c63a be3e 9510 7b3c 1a33 27bd
00000210: 3715 d43d a6ab 3bbd c83b cc3c 61e7 78bd
00000220: cfb5 943e e197 443e 730e 8a3c 704c fbbd
00000230: da2f 7e3d aae9 ce3c e2e3 3f3e 96ff 183e
00000240: 1c46 293d 45b4 2cbe 9f70 673e 3d84 4abd
00000250: 6e43 773d cea1 973d 30c2 83bd 4453 68be
00000260: b630 133e 7e51 8ebd 90f5 6cbe 2b45 a13e
00000270: 4e3b 023d 6ccc de3c daf7 c53e c7c6 64bd
00000280: e6e8 b4be 3fbb 223e 7541 533d 469c 1e3f
00000290: 35aa e4bc a707 58be d824 513e 4178 83bc
000002a0: 23d5 51bf 512d bdbd a25a f3bd 2bba 17be
000002b0: 0e1e 9b3d 39e1 6b3d 70c2 8a3e b0cc e13b
000002c0: 89ad df3e f0c3 e5bd 6af9 a33e 2607 9f3d
000002d0: 4941 08bf 5550 c43d 0e90 d83e 429b eabd
000002e0: 2a6a 873d 43e8 66bd 238f 9a3d 0bef ab3d
000002f0: 472f f23d 32dc 9e3e ac90 eabe 34c2 5b3c
00000300: 6adb c93c c3ab f53d 08da ad3d 3f09 00be
00000310: c873 533d f92c eabd c114 c13e 2f38 823e
00000320: dfe2 91bb 2ce3 503d ade8 aa3b 0b57 a33e
00000330: e880 c7be 3d15 1bbe b63b aa3e 3a7d 113e
00000340: 48a7 2a3d 1bc5 d53d 05ef 75bd 9d43 edbc
00000350: 9780 0d3f 5bdb 053e c406 273e 0fc2 713d
00000360: 8c37 09bc e54d 97bb ad7e 88be 6aea a5bc
00000370: fd55 83be 4786 813e f277 bd3c 34d4 903c
00000380: 3cc3 a93c 2309 0ebd 32fb 853b f7a2 353d
00000390: a3e2 f5bc f2b4 2fbd 8c19 dfba 0dad eb3e
000003a0: 4cae 2f3d d1f2 ea3c cdea 8f3e 27fc 053c
000003b0: abb1 bf3d 0bb6 0fbe fe2f 523e bc6c 37be
000003c0: 316d 053e e170 0a3e 06a1 8fbd 80f1 a43b
000003d0: 917a d03d 93fd 8a3d 2f89 0c3f 5d7a c23d
000003e0: 94c0 adbe 972a 04bc 8d0d e5bb 3a01 c4bd
000003f0: d5bc 903c f5e3 c53d 0413 543e 2b3d c43e

out.bias f4 [7]
0.4064874 0.7065901 0.38245052 1.136332 0.65540755 0.37509015 0.43936044
00000000: 1e1f d03e 17e3 343f 8ed0 c33e 5473 913f
00000010: cac8 273f d10b c03e daf3 e03e
