scenario_runner0915/adv_lib/adv_model/has_wall_exp_15_id_847.onnx (onnx, 148705 bytes, 6 tensors)

fc1.weight f4 [128, 16]
0	0x3e113a50	0.141824
1	0x3e22dfb4	0.15905648
2	0xbd378d9c	-0.044812784
3	0x3e1cf605	0.15328224
4	0xbd09cb1f	-0.033640977
5	0x3dc8d3aa	0.09805997
6	0xbe451fc4	-0.19250399
7	0x3c27fe0c	0.010253441
8	0xbe161c30	-0.1465919
9	0x3cb61dc5	0.022230992
10	0xbe7ae7e0	-0.24502516
11	0x3d4ca21f	0.0499593
12	0x3d0626cb	0.03275184
13	0x3d9bedc9	0.07613713
14	0xbe137842	-0.14401343
15	0xbe1d240a	-0.15345779
16	0x3ded1e0b	0.11577996
17	0x3ca6d486	0.020365011
18	0xbdb469c0	-0.08809233
19	0x3bae92ad	0.0053275437
20	0xbe35195e	-0.17685458
21	0x3dceb838	0.10093731
22	0xbe40a492	-0.18812779
23	0xbdb79ba4	-0.08965233
24	0x3dd8a42a	0.10578187
25	0x3d5b4186	0.053529285
26	0xbdaa8080	-0.08325291
27	0x3b43aa4b	0.0029856141
28	0x3d4493b6	0.04799243
29	0x3dd5dac4	0.10442117
30	0xbdf716f9	-0.120649286
31	0xbce41f75	-0.027847031
32	0x3d29bd23	0.04144014
33	0x3db75138	0.08951038
34	0xbe8271e4	-0.25477517
35	0xbbced512	-0.006312021
36	0x3d6fc44b	0.05853681
37	0xbee29f4b	-0.44262156
38	0xbd70a909	-0.058754954
39	0x3f073f0c	0.52830577
40	0x3d6234f2	0.055226274
41	0x3e5e47bc	0.21707052
42	0xbe334125	-0.1750532
43	0xbe759f5c	-0.23986572
44	0xbe0659ee	-0.13120243
45	0xbd8e2364	-0.06940344
46	0x3c7753c7	0.015095658
47	0x3ee9c4a0	0.45657825
48	0xbd2ee719	-0.04270086
49	0x3e2d4bef	0.16923498
50	0xbe8872d0	-0.26650095
51	0x3b2e2b01	0.0026575925
52	0xbde7e284	-0.11322501
53	0x3e8c5e38	0.27415633
54	0x3edfebe1	0.4373465
55	0xbf38a2ff	-0.7212371
56	0xbe2191a2	-0.15778211
57	0xbd6e006f	-0.058105882
58	0x3d0ee3ce	0.03488522
59	0xbb6e5b40	-0.0036370307
60	0x3c8c8817	0.017154736
61	0xbda737b0	-0.081649184
62	0x3ebe9d69	0.3722947
63	0xbeeb7a0c	-0.45991552
64	0x3d859bf9	0.0652389
65	0xbdf040c2	-0.117311016
66	0x3d31a452	0.0433696
67	0x3e109789	0.14120306
68	0x3e13edaf	0.14446138
69	0x3e6091a8	0.21930563
70	0x3f251f51	0.6450091
71	0xbf0340ae	-0.5127057
72	0x3d8a7709	0.067609854
73	0x3db05f98	0.08611983
74	0xbd61dc30	-0.055141628
75	0x3c97f85a	0.01855104
76	0xbdab8059	-0.0837409
77	0xbddb500a	-0.107086256
78	0xbec2444e	-0.37942737
79	0x3ec18533	0.37796935
80	0xbe60cebb	-0.21953861
81	0x3db1e1de	0.08685659
82	0x3d2aa5df	0.041662093
83	0xbc022ddc	-0.007945504
84	0xbdd9bf46	-0.10632186
85	0x3d972b76	0.073813364
86	0x3da133a2	0.07871176
87	0x3eea3c22	0.45749003
88	0xbdf68b5d	-0.120383
89	0x3dbf4aa0	0.093404055
90	0xbc6aa74a	-0.014322111
91	0x3c39cdbd	0.011340556
92	0xbe0348a2	-0.12820676
93	0xbe1441af	-0.14478181
94	0xbd84ea9a	-0.06490059
95	0xbe966d65	-0.29380336
96	0xbd83b369	-0.06430704
97	0xbd87d60c	-0.06632623
98	0x3e38b226	0.18036708
99	0x39d38c7a	0.0004034972
100	0x3b8754ea	0.0041299956
101	0x3e10763d	0.14107604
102	0x399ae562	0.00029544072
103	0x3eba15c1	0.36344722
104	0xbe827c5f	-0.25485513
105	0xbd1c0c71	-0.038097803
106	0xbe28bbe5	-0.16477926
107	0x3e6420ac	0.22278088
108	0xbde261b6	-0.11053793
109	0xbd43a2e7	-0.047762778
110	0x3d156d39	0.036481116
111	0x3f8b7f42	1.0898211
112	0xbe4c9787	-0.19979678
113	0x3edea0d7	0.43482086
114	0x3e87c768	0.26519322
115	0x3eb3ddbc	0.35130107
116	0xbe4aab94	-0.19792014
117	0x3ed8c517	0.42337868
118	0x3e70b938	0.23508155
119	0x3ba1f8b5	0.0049429783
120	0xbe6d2dbd	-0.23161979
121	0xbe5a0210	-0.2128985
122	0xbd515aa4	-0.051111832
123	0x3de1cb26	0.110250756
124	0x3e08989e	0.13339469
125	0x3d4f0652	0.050543137
126	0x3e5d926a	0.21637884
127	0x3ea4a3c3	0.3215619
128	0xbd3d623d	-0.046236265
129	0x3ae88e7a	0.0017742657
130	0x3eca0894	0.3945967
131	0xbe521e37	-0.20519339
132	0x3d9ebc52	0.07750763
133	0xbde1a516	-0.11017816
134	0xbf02b003	-0.5104982
135	0xbf873e25	-1.056584
136	0xbd900998	-0.0703308
137	0x3bb514bb	0.005526153
138	0x3db1cfee	0.086822376
139	0xbab65172	-0.0013909771
140	0x3bf030aa	0.00733002
141	0x3c4a5531	0.012349413
142	0x3e28c0d5	0.1647981
143	0xbfa04dfb	-1.2523798
144	0x3e901fd3	0.2814928
145	0xbc889d1d	-0.01667648
146	0xbd570194	-0.05249174
147	0xbdfc6c10	-0.12325299
148	0xbe09711a	-0.13422051
149	0xbde4c073	-0.11169519
150	0x3eeafd1d	0.45896235
151	0x3f210a66	0.6290649
152	0x3ee2c2a6	0.4428913
153	0x3eda3f26	0.42626303
154	0x3d39dc50	0.045376122
155	0x3b3dc317	0.0028955394
156	0x3b3feb52	0.002928455
157	0xbdc1bef5	-0.0946025
158	0xbe951555	-0.29117838
159	0x3fc3b34b	1.5289091
160	0xbe49758d	-0.19673748
161	0x3e32a912	0.17447308
162	0x3db5997c	0.088671654
163	0xbd458b04	-0.04822828
164	0xbe3eea4f	-0.18644069
165	0xbd4aa96a	-0.049477972
166	0x3eb33dca	0.3500808
167	0x3e731b58	0.237409
168	0xbeba67ae	-0.36407226
169	0x3d009f79	0.031402085
170	0xbda0129b	-0.07816049
171	0x3e25bef4	0.16186124
172	0x3d6241d4	0.05523856
173	0xbe35b723	-0.17745642
174	0xbe152d4a	-0.14568058
175	0x3dd82862	0.105545774
176	0xbe145912	-0.14487103
177	0xbc5a193e	-0.013311682
178	0x3f7f2577	0.9966654
179	0xbdf74029	-0.120727845
180	0x3dd442dc	0.10364315
181	0x3c82b463	0.015955156
182	0xbe83d495	-0.25748125
183	0xbe2451e2	-0.16046861
184	0x3ca1c020	0.019744933
185	0xbe02a32b	-0.12757556
186	0xbc86a80e	-0.016437557
187	0xbba0085a	-0.004883808
188	0x3dc2c554	0.095102936
189	0xbdac4064	-0.08410719
190	0x3db0fb4e	0.086416826
191	0xbe96006e	-0.29297203
192	0xbe0df792	-0.13863972
193	0xbe74ee57	-0.23919044
194	0x3e9204d7	0.28519318
195	0xbe5ef053	-0.21771364
196	0xbe50fa10	-0.20407891
197	0x3c1818da	0.009283269
198	0x3ee36e4d	0.4442009
199	0xbd84b0a6	-0.064790055
200	0xbb972cd6	-0.004613499
201	0xbe1ec595	-0.15505059
202	0x3c8f9529	0.01752718
203	0x3ac540a9	0.0015049177
204	0x3ec45b69	0.3835099
205	0x3dbab57a	0.09116645
206	0x3e89d452	0.269198
207	0x3eb9f674	0.3632084
208	0x3cd3eea4	0.025870629
209	0xbc948ba8	-0.018133
210	0xbd4a97cb	-0.049461167
211	0xbe1b97d1	-0.15194632
212	0x3e93bed3	0.28856525
213	0xbe9485ea	-0.29008418
214	0xbb3e9ea2	-0.0029086252
215	0x3d964eea	0.073392704
216	0xbd53b4bf	-0.051686045
217	0xbd1e2de4	-0.038617983
218	0xbd863a9a	-0.06554146
219	0x3ad8b743	0.0016534108
220	0xbeb5dad7	-0.35518524
221	0xbd98689b	-0.07441827
222	0xbe27a93e	-0.16373155
223	0x3f415c8e	0.7553185
224	0xbe6517bd	-0.22372337
225	0x3dcfeca4	0.101525575
226	0xbd38a5dc	-0.04508005
227	0x3d8a1505	0.067422904
228	0x3d3a7977	0.045525994
229	0x3e36c7d8	0.17849672
230	0xbf3edc7c	-0.7455518
231	0xbeb4fb36	-0.3534791
232	0x3d414db4	0.047193244
233	0xbd9fce78	-0.07803053
234	0x3df0a092	0.11749376
235	0x3cdcb6cc	0.026942633
236	0x3c249224	0.010044608
237	0x3c8609cc	0.016362093
238	0x3e6839ad	0.22678252
239	0xbf55816d	-0.83400613
240	0xbcb91f1d	-0.022597844
241	0x3c62d0a9	0.013843694
242	0xbe57d3f3	-0.21076946
243	0x3df9382e	0.121689186
244	0x3e051d8a	0.1299955
245	0xbe34917f	-0.17633627
246	0xbeb21853	-0.34784183
247	0x3e4cd250	0.20002103
248	0xbe4418c3	-0.19150071
249	0x3d3bf2bf	0.045885798
250	0xbea20d82	-0.3165093
251	0x3e30dc85	0.17271622
252	0xbdb167d9	-0.086623855
253	0x3cd105e7	0.02551551
254	0xbe72546c	-0.23665017
255	0xbe488777	-0.19582926

fc1.bias f4 [128]
0	0x3ddffbeb	0.109367214
1	0xbe2fffa9	-0.1718737
2	0xbdf230c6	-0.11825709
3	0x3eab6caf	0.33481357
4	0x3c03ab0a	0.008036384
5	0x3e902951	0.28156522
6	0xbdb616ff	-0.08891105
7	0x3d652cfc	0.055951104
8	0x3e9f4193	0.31104717
9	0xbf1ad93d	-0.6048773
10	0x3d40a8db	0.047036033
11	0x3d1470f3	0.03624053
12	0x3bb1431f	0.005409613
13	0xbe859571	-0.26090577
14	0x3e250642	0.16115668
15	0xbe35631d	-0.1771359
16	0xbe062560	-0.13100195
17	0xbd03856f	-0.032109674
18	0xbe2c6a18	-0.16837347
19	0xbe0e77db	-0.13912909
20	0xbd728220	-0.059206128
21	0x3ec2c9b5	0.38044515
22	0x3e6992f0	0.22809958
23	0x3dfd9d5a	0.12383528
24	0xbdc5563f	-0.09635591
25	0x3a90a50f	0.001103552
26	0x3d9db835	0.0770115
27	0xbe8c902e	-0.2745375
28	0x3e3b34c9	0.18281855
29	0xbe382b14	-0.17985183
30	0xbdce58af	-0.10075509
31	0x3e44d451	0.19221617
32	0xbd6edda8	-0.058316857
33	0x3eb9676e	0.36211723
34	0xbf356793	-0.70861167
35	0x3cf96fa8	0.03044875
36	0xbeaf134d	-0.34194413
37	0xbe3f7d26	-0.18700084
38	0x3e0786f8	0.1323508
39	0x3c7b4378	0.01533591
40	0x3d4a8a5f	0.049448367
41	0x3dcd0a49	0.10011727
42	0x3e2b2cc0	0.1671629
43	0x3d21a6cd	0.039465714
44	0xbdf0d360	-0.117590666
45	0x3c3b84cb	0.0114452345
46	0xbe5e6012	-0.21716335
47	0x3e712310	0.23548532
48	0xbe6cb234	-0.23114854
49	0xbe5ad78c	-0.21371287
50	0x3d837b24	0.064199716
51	0xbed3726e	-0.4129824
52	0x3e66106a	0.22467199
53	0x3e5e5489	0.21711935
54	0xbe81c1cb	-0.25343165
55	0x3ed453a6	0.4147007
56	0xbe9169fa	-0.28401166
57	0xbe23336d	-0.15937586
58	0x3e05c09d	0.13061757
59	0xbe34fae2	-0.17673829
60	0xbd7f0fc9	-0.062270913
61	0xbdabfde9	-0.08398039
62	0x3e9bb58f	0.30411956
63	0xbd1cddaf	-0.03829735
64	0xbdaf0035	-0.08544961
65	0x3e73a473	0.23793201
66	0x3e8816b5	0.26579824
67	0x3db9946a	0.09061511
68	0xbe74c5bc	-0.23903555
69	0xbe9c608e	-0.30542415
70	0x3e316010	0.17321801
71	0x3dd5094b	0.10402163
72	0x3e9d5a73	0.3073307
73	0x3db93c44	0.09044698
74	0x3e5e558b	0.2171232
75	0x3ea9ed94	0.3318907
76	0xbe8fa845	-0.28058067
77	0x3e928d1f	0.28623292
78	0xbc929909	-0.017895238
79	0x3c2c9c87	0.010535366
80	0x3e0a8e6d	0.13530894
81	0x3df0e198	0.117617786
82	0x3efc8957	0.49323532
83	0xbca23b33	-0.019803619
84	0xbe05aa52	-0.13053253
85	0xbebdcd72	-0.37070805
86	0x3e909bf1	0.28243974
87	0xbc5cdc3d	-0.013480243
88	0xbe5a1c3a	-0.2129983
89	0xbdb94003	-0.090454124
90	0xbe2c72d6	-0.16840681
91	0x3f21c6e9	0.6319414
92	0x39701049	0.0002289425
93	0x3ed7bbe8	0.4213555
94	0x3e810f4f	0.25206992
95	0xbea8c5d6	-0.32963437
96	0x3dd40995	0.1035339
97	0x3de3b0a8	0.11117679
98	0xbd69f1a5	-0.057115216
99	0x3d95f4a2	0.07322051
100	0xbd85fbb4	-0.06542149
101	0x3e43c18f	0.19116805
102	0x3ddf0323	0.1088927
103	0x3de24491	0.11048234
104	0x3e977074	0.29577982
105	0x3dbaf6e8	0.09129125
106	0x3f28eb3a	0.6598393
107	0x3e66b582	0.22530177
108	0x3e355b12	0.17710522
109	0x3e9b6c4a	0.30356055
110	0xbd8233fb	-0.06357571
111	0x3d893e74	0.06701365
112	0xbe8310bd	-0.25598708
113	0x3dacce18	0.08437747
114	0x3ec68082	0.3876992
115	0x3e8740f9	0.26416758
116	0xbe76ecab	-0.24113719
117	0xbe87ed22	-0.26548105
118	0xbd3dc517	-0.046330538
119	0xbe51ebd4	-0.20500118
120	0x3ec0e48f	0.37674376
121	0xbe64460b	-0.22292344
122	0x3e7a6bc8	0.24455178
123	0xbe18de8d	-0.14928646
124	0xbdc89d98	-0.097956836
125	0xbd14a0f5	-0.036286313
126	0x3e9087e0	0.28228664
127	0x3e8146de	0.2524938

fc2.weight f4 [256, 128]
0	0xbc33f5d6	-0.010983905
1	0xbd82ac6f	-0.06380545
2	0xbe5bd8d9	-0.2146944
3	0xbe8baf4a	-0.27282172
4	0xbe196903	-0.14981465
5	0xbe49a694	-0.19692451
6	0xbbd94563	-0.006630586
7	0xbde5dae2	-0.11223389
8	0xbe3d0690	-0.18459535
9	0xbd04556a	-0.03230802
10	0xbc7b80c0	-0.015350521
11	0xbcf71dda	-0.030165602
12	0xbe40dbab	-0.18833797
13	0x3c2dcae9	0.01060746
14	0x3c46ef04	0.012141947
15	0x3c87ad7e	0.01656222
16	0xbe2be89f	-0.16787957
17	0xbd952738	-0.07282871
18	0xbe02b739	-0.12765206
19	0x3c471892	0.012151854
20	0xbe229160	-0.15875769
21	0xbc3bdbbe	-0.011465965
22	0xbe791ee2	-0.24328187
23	0xbe12feba	-0.14354983
24	0x3ca14121	0.019684376
25	0xbc2e194a	-0.010626147
26	0xbe80de01	-0.25169376
27	0xbcd8fbab	-0.026487192
28	0xbdd9d646	-0.106365725
29	0xbdf321bf	-0.11871671
30	0xbdb65278	-0.089024484
31	0x3d87f1cd	0.06637917
32	0xbe190d2b	-0.1494643
33	0xbdbbb70f	-0.09165775
34	0xbe8ef4cf	-0.2792115
35	0xbe1376ae	-0.14400741
36	0x3d5c3c22	0.053768285
37	0x3dfa7256	0.12228839
38	0x3dc3848d	0.095467664
39	0xbd108203	-0.03528024
40	0x3ca88902	0.020573143
41	0xbc8bb3c4	-0.017053492
42	0xbdc7693c	-0.09736869
43	0x3c9497e3	0.018138831
44	0xbd36cd9f	-0.04462969
45	0xbd9e7749	-0.077375956
46	0xbcd20f7e	-0.025642153
47	0xbe2e4afe	-0.17020795
48	0x3dac8f14	0.084257275
49	0xbe1fa020	-0.15588427
50	0xbda8a634	-0.08234826
51	0x3d35b281	0.044359688
52	0x3e2025b6	0.15639386
53	0xbc936322	-0.017991606
54	0xbdc1c651	-0.09461654
55	0xbd895cfa	-0.06707187
56	0x3e4eb6eb	0.20186965
57	0xbbcedbe9	-0.0063128364
58	0xbe0e5e70	-0.13903213
59	0x39a39343	0.000311995
60	0x3c309c1a	0.010779405
61	0x3e24379c	0.16036838
62	0x3b69ec6e	0.0035693902
63	0xbe023d57	-0.12718712
64	0xbccad420	-0.024759352
65	0xbd211e45	-0.039335508
66	0xbcbacfae	-0.022804108
67	0xbdd490ee	-0.10379206
68	0x3c1455c9	0.009053656
69	0xbdfef80e	-0.124496564
70	0xbe4df8b1	-0.201144
71	0xbe7b0b3a	-0.24516001
72	0xbd33f2ff	-0.04393291
73	0xbd060947	-0.03272369
74	0xbcfb44db	-0.030672481
75	0xbc163494	-0.009167809
76	0x3d9178bb	0.07103106
77	0x3cd2c9e9	0.025731044
78	0x3dd665fa	0.10468669
79	0x3c8184da	0.015810419
80	0x3da2db83	0.07952025
81	0xbdca27b6	-0.098708555
82	0xbd613634	-0.054983333
83	0x3d5a31fa	0.053270318
84	0xbd2b9f8b	-0.0419002
85	0x3e002a91	0.12516238
86	0x3dab40c2	0.08361961
87	0xbe931e18	-0.28733897
88	0xbdca506a	-0.09878619
89	0x3d23f7d5	0.040031273
90	0xbd85c160	-0.06531024
91	0x3d82e2f6	0.063909456
92	0xbdc0c4a2	-0.09412505
93	0x3d94d571	0.07267273
94	0xbd1cd79a	-0.03829155
95	0xbdca9572	-0.09891786
96	0xbcbe3e86	-0.023223173
97	0xbcea494d	-0.028599406
98	0xbc0cc779	-0.00859248
99	0xbdfcf0b0	-0.12350595
100	0xbe0099c8	-0.12558663
101	0xbd988a81	-0.074482925
102	0x3e41644a	0.18885913
103	0xbc81a2e7	-0.015824748
104	0xbe191ea1	-0.1495309
105	0xbd85d4c5	-0.06534723
106	0x3c45cab7	0.012072257
107	0xbd0c79f5	-0.034295995
108	0xbe1c507c	-0.15265077
109	0x3db9106b	0.090363346
110	0xbd3e14a4	-0.046406403
111	0xbd2acb52	-0.041697808
112	0x3d990a22	0.07472636
113	0xbe56295a	-0.20914212
114	0x3c20d1c3	0.009815636
115	0xbd382e53	-0.044966053
116	0xbdb764d1	-0.08954776
117	0xbd6e64c0	-0.05820155
118	0xbd82d87f	-0.063889496
119	0xbe645ab6	-0.22300228
120	0xbd7172ae	-0.058947258
121	0x3e563d11	0.20921732
122	0x3d40213e	0.046906702
123	0xbd197da0	-0.03747332
124	0x3d3e0084	0.04638721
125	0x3ce9dcd2	0.028547678
126	0xbe2304fd	-0.15919872
127	0xbe849cc8	-0.25900865
128	0xbd93e7cd	-0.07221947
129	0xbc33c598	-0.010972403
130	0xbe41c299	-0.1892189
131	0x3d229e18	0.03970155
132	0x3cb1d02b	0.021705708
133	0x3e01b1a1	0.12665416
134	0x3dc5edb3	0.09664478
135	0x3e79722d	0.24359961
136	0x3e18c7b6	0.14919934
137	0xbd63000c	-0.055419967
138	0x3d547cc4	0.0518768
139	0xbb9c78eb	-0.0047751567
140	0x3edf1fa0	0.43578815
141	0xbe880c61	-0.26571944
142	0x3dcaeddf	0.099086516
143	0xbe5f0d0b	-0.21782319
144	0xbe11c645	-0.1423579
145	0xbb96f554	-0.004606882
146	0x3e6dd864	0.23227078
147	0x3e6c0022	0.23046926
148	0xbde1acda	-0.11019297
149	0xbe34846b	-0.17628638
150	0x3e85a349	0.2610114
151	0x3c73340d	0.014843953
152	0xbdcb126a	-0.099156216
153	0x3ca1441e	0.019685801
154	0xbdde1bab	-0.10845121
155	0x3d89d896	0.067307636
156	0xbe234cb9	-0.15947236
157	0xbe5dacc1	-0.21647932
158	0x3d8c5fbe	0.06854199
159	0x3e3112b2	0.17292288
160	0x3d887859	0.066635795
161	0x3e773811	0.24142481
162	0x3d2aa898	0.04166469
163	0x3e095cdb	0.13414328
164	0x3cab91da	0.02094357
165	0x3cd1f839	0.025631057
166	0xbd844a2f	-0.06459462
167	0xbd89bab5	-0.06725065
168	0xbe16fd16	-0.14744982
169	0xbdfb9a5c	-0.12285301
170	0x3e082266	0.13294372
171	0x3d7c9911	0.061669413
172	0xbe08cefc	-0.13360208
173	0xbdccce2b	-0.10000261
174	0xbde70735	-0.112806715
175	0xbeaf6fa5	-0.34264866
176	0xbdc12f2c	-0.094328254
177	0x3d8d25e1	0.068919905
178	0x3e065860	0.1311965
179	0xbe1b4c0c	-0.15165728
180	0xbd3740ac	-0.04473941
181	0xbd20fc79	-0.039303277
182	0x3d9645c7	0.07337528
183	0x3e0c821a	0.13721505
184	0xbd62db96	-0.055385195
185	0x3ef596b9	0.47966555
186	0xbce92284	-0.028458841
187	0xbb9a0d60	-0.0047013015
188	0x3dcf02e7	0.101079755
189	0x3e4d437d	0.20045276
190	0x3d21bf30	0.03948897
191	0x3e254d68	0.1614281
192	0x3c407e03	0.011748794
193	0xbd86877b	-0.065688096
194	0xbe3253ab	-0.1741473
195	0xbdb71090	-0.08938706
196	0x3d6b623d	0.057466734
197	0x3e53db7b	0.20689194
198	0xbe65f0b4	-0.22455102
199	0xbde3c5ff	-0.11121749
200	0xbe198868	-0.14993441
201	0x3e17c2fa	0.14820471
202	0xbe0b8709	-0.1362573
203	0xbd8eefea	-0.06979354
204	0xbd1ac7f5	-0.03778835
205	0xbe483eff	-0.19555281
206	0xbe9a441a	-0.30130082
207	0x3e7f8370	0.24952483
208	0x3d969b63	0.073538564
209	0x3df2acc1	0.118493564
210	0x3e2a09ab	0.1660525
211	0x3baa5c84	0.005199017
212	0x3ddb858a	0.1071883
213	0xbe412390	-0.18861222
214	0x3d865acd	0.065602876
215	0xbe06cb25	-0.13163431
216	0xbd4e7b5d	-0.050410617
217	0xbdb11181	-0.08645917
218	0xbdead0b9	-0.11465592
219	0xbe6e10e6	-0.23248634
220	0x3e438ffc	0.19097894
221	0x3d1398e6	0.036034487
222	0xbde60159	-0.11230726
223	0xbb2214ce	-0.002473164
224	0x3c7a6d25	0.015284811
225	0xbe645de9	-0.22301449
226	0xbd9dac77	-0.07698911
227	0xbd806aee	-0.06270395
228	0xbd221ec2	-0.039580114
229	0x3d8865c0	0.06660032
230	0xbddc42fd	-0.107549645
231	0x3c5c97f6	0.013463965
232	0xbe73d253	-0.23810701
233	0xbe094439	-0.13404931
234	0xbd207105	-0.039170284
235	0xbf00f80b	-0.50378484
236	0xbcb9da50	-0.022687107
237	0x3dc5b89f	0.09654354
238	0xbe0cf339	-0.13764657
239	0x3e2c06da	0.16799489
240	0xbd61ab6e	-0.05509513
241	0xbe597a9d	-0.2123818
242	0xbdd5cc7b	-0.10439392
243	0x3db2e12e	0.08734356
244	0x3d2c3ba9	0.042049084
245	0x3e035977	0.12827097
246	0xbec76a1f	-0.3894815
247	0xbd7338ee	-0.059380464
248	0xbe58bbbf	-0.2116537
249	0x3dce8626	0.100841805
250	0xbdee20b5	-0.11627332
251	0xbe0e6149	-0.13904299
252	0x3e25f61d	0.16207166
253	0x3d18358e	0.03716045
254	0xbd843007	-0.06454473
255	0xbe82872b	-0.2549375

fc2.bias f4 [256]
0	0xbe34a5c5	-0.17641361
1	0x3bece66b	0.0072296164
2	0xbd92b6de	-0.071637854
3	0xbda5e255	-0.0809981
4	0xbb823514	-0.0039736126
5	0xbdb3e79a	-0.08784409
6	0xbe0d6fca	-0.13812175
7	0xbeae1b4f	-0.3400521
8	0xbe0ad28e	-0.13556883
9	0x3d98feb2	0.07470454
10	0xbe22c7a9	-0.15896477
11	0xbe01b785	-0.12667663
12	0xbdea8a90	-0.1145221
13	0xbdefe66a	-0.1171387
14	0xbd446364	-0.04794635
15	0x3e204e99	0.15654983
16	0x3c5e036a	0.013550619
17	0xbe1914c1	-0.14949323
18	0xbdf32df7	-0.118740015
19	0xbe22895a	-0.15872708
20	0xbdc31ea4	-0.095273286
21	0x3e5288fe	0.20560071
22	0xba3c4d02	-0.0007183106
23	0x3e5adebd	0.2137403
24	0xbd63ea7c	-0.055643544
25	0x3bd45958	0.006480377
26	0x3e0207e6	0.12698326
27	0xbd4ad9b2	-0.049524017
28	0xbcce6e55	-0.025199095
29	0xbbadfa70	-0.0053093955
30	0xbd8789e0	-0.066180944
31	0xbd6eedec	-0.05833237
32	0x3c1999cb	0.009375046
33	0xbe5194c5	-0.20466907
34	0x3cd43c15	0.025907556
35	0xbd9cee24	-0.07662609
36	0x3e5d7307	0.2162591
37	0x3ea56816	0.32305974
38	0xbd19071e	-0.037360303
39	0x3dc7cd51	0.09755958
40	0xbdf9256a	-0.12165339
41	0xbe693cef	-0.2277715
42	0xbc2335ec	-0.009961586
43	0xbd642891	-0.05570275
44	0x3e76963d	0.24080749
45	0x3ebe2299	0.3713577
46	0xbccb1092	-0.024788175
47	0x3e7230d4	0.23651439
48	0x3e382c2f	0.17985605
49	0x3e00e156	0.12585959
50	0xbb4e90fc	-0.0031519523
51	0xbd8a624f	-0.06757032
52	0xbde04f2f	-0.10952603
53	0xbde7aa4a	-0.11311777
54	0xbe1d11a0	-0.15338755
55	0x3e7aff3c	0.24511427
56	0x3d1fa48d	0.038975287
57	0xbcca0b9e	-0.024663743
58	0xbca01c58	-0.019544765
59	0xbdf5edce	-0.12008248
60	0x3e209785	0.156828
61	0xbcfa1c95	-0.030531207
62	0xbd403b88	-0.046931773
63	0xbddb7221	-0.10715128
64	0xbdb08514	-0.08619133
65	0xbdbbc0d6	-0.0916764
66	0xbd84d3a3	-0.06485679
67	0xbd0077b4	-0.031364158
68	0x3d93ded9	0.07220239
69	0xbcfdf2f7	-0.030999644
70	0xbe37af79	-0.17938031
71	0x3d19b048	0.03752163
72	0xbdaa4276	-0.08313458
73	0xbc8201c7	-0.015869988
74	0x3d1f6f41	0.03892446
75	0xbd6b26b0	-0.057409942
76	0xbde20705	-0.11036495
77	0xbda7575a	-0.08170958
78	0xbd8f876f	-0.07008254
79	0xbdea5a71	-0.114430316
80	0x3e73f6f9	0.23824681
81	0xbdbc79d6	-0.09202926
82	0xbe1fa52c	-0.15590352
83	0xbda17277	-0.078831606
84	0xbde18970	-0.11012542
85	0xbd52296b	-0.05130903
86	0xbdede6f5	-0.11616317
87	0xbced3f3a	-0.028960813
88	0xbdfbaca5	-0.12288789
89	0x3e124e61	0.14287712
90	0xbdf862b8	-0.12128204
91	0x3e3bdbe2	0.18345597
92	0xbc2bd1f3	-0.0104870675
93	0xbc2ff600	-0.010739803
94	0xbdedde02	-0.1161461
95	0x3e4461f9	0.19177999
96	0xbc971f0b	-0.01844742
97	0xbd9910e5	-0.074739255
98	0xbdfdda4c	-0.123951524
99	0xbde9c40c	-0.11414346
100	0x3cb07d33	0.021544075
101	0x3c9d84d1	0.01922837
102	0xbd567e62	-0.05236662
103	0xbe21fe1f	-0.15819596
104	0x3caed4b4	0.02134166
105	0xbd17b234	-0.037035182
106	0xbca41e8e	-0.0200341
107	0xbdbf265d	-0.09333489
108	0xbddc5c45	-0.107597865
109	0x3eb08213	0.3447424
110	0xbe0038ef	-0.12521718
111	0xbe0ff0ad	-0.14056654
112	0xbda345e6	-0.079723164
113	0x3e682043	0.22668557
114	0xbe30d727	-0.17269574
115	0xbc81862e	-0.015811052
116	0xbd080461	-0.0332073
117	0xbcb36fcc	-0.021903895
118	0x3ca3d9cc	0.020001315
119	0x3e63da3d	0.2225122
120	0x3d0023c6	0.031284116
121	0xbe1b15f5	-0.15145095
122	0xbcb1140a	-0.021616
123	0xbd0dfed9	-0.03466687
124	0xbde36d3a	-0.11104818
125	0x3ed7c337	0.42141125
126	0xbd4a7e4d	-0.049436856
127	0xbde57926	-0.11204748
128	0xbd81e8dd	-0.06343243
129	0x3e95d2be	0.29262346
130	0xbd57b27e	-0.052660458
131	0x3dea88f3	0.11451902
132	0x3da5dd46	0.08098845
133	0xbdfa2773	-0.122145556
134	0x3d841490	0.064492345
135	0x3d1c359d	0.038137067
136	0x3e37df82	0.17956355
137	0xbe075c09	-0.13218702
138	0xbe1247aa	-0.1428515
139	0xbc73fe67	-0.014892197
140	0xbcae2b22	-0.021260802
141	0xbe5ae00c	-0.2137453
142	0xbda1bdc8	-0.07897526
143	0x3e4dfe07	0.20116435
144	0xbdacf896	-0.084458515
145	0xbdc671c2	-0.09689666
146	0xbe2376dc	-0.1596331
147	0x3ca7fe4a	0.020506997
148	0xbc1910ea	-0.0093424115
149	0x3c981bdb	0.01856797
150	0xbde16896	-0.11006276
151	0xbdff9091	-0.12478746
152	0x3bcd4ea8	0.00626548
153	0xbc7f4040	-0.015579283
154	0xbc35158f	-0.011052503
155	0x3d660f93	0.056167196
156	0xbc811f6d	-0.015762055
157	0xbd588de1	-0.05286968
158	0xbdeb215e	-0.11480974
159	0x3dc856dd	0.09782193
160	0xbdd05cd5	-0.10173956
161	0xbdb69307	-0.08914762
162	0xbe58b35e	-0.21162173
163	0x3c47e9ef	0.01220177
164	0xbe2d4123	-0.16919379
165	0xbd81bf07	-0.06335264
166	0x3b769810	0.0037627257
167	0xbe05ff1e	-0.130856
168	0xbdc36c95	-0.09542195
169	0x3d2bd072	0.041946836
170	0xbd57be8f	-0.052671965
171	0xbcfff973	-0.031246876
172	0xbdf1d5c2	-0.11808349
173	0x3db562a0	0.08856702
174	0x3e8516a5	0.2599384
175	0xbe003e17	-0.12523685
176	0xbdaa7e06	-0.08324818
177	0x3e586776	0.21133217
178	0x3d3d3eb9	0.046202395
179	0xbdd73d16	-0.10509698
180	0x3cc415fe	0.023936268
181	0x3e00e76b	0.12588279
182	0xbda5af7d	-0.08090112
183	0x3d7602e4	0.06006135
184	0xbd108d72	-0.035291143
185	0xbdd8ddb6	-0.10589163
186	0xbd9e6cb6	-0.07735579
187	0xbcd2c651	-0.02572933
188	0x3bb7e7cb	0.0056123487
189	0xbd8a663a	-0.067577794
190	0xbb03a34d	-0.0020086349
191	0xbd1b4f4b	-0.037917417
192	0xbde8f905	-0.11375622
193	0x3b336d3f	0.0027378348
194	0xbd6563cd	-0.05600338
195	0xbd8aed4c	-0.06783542
196	0xbd0d6386	-0.03451874
197	0xbd5ced60	-0.053937316
198	0xbc63087e	-0.013857005
199	0x3e920b0f	0.28524062
200	0x3e0ea4be	0.13930032
201	0xbd999271	-0.074986346
202	0xbda171b7	-0.078830175
203	0x3d9570ae	0.072968826
204	0xbc0d1d02	-0.008612873
205	0xbd8a87c0	-0.067641735
206	0x3e364520	0.17799807
207	0xbc4a3e2b	-0.012343924
208	0xbce286a0	-0.027652085
209	0x3df86296	0.12128179
210	0xbc8e7043	-0.017387515
211	0xbdf66a66	-0.12032013
212	0x3e4cbe00	0.19994354
213	0xbc4ee113	-0.012626904
214	0xbd93774f	-0.07200491
215	0xbe07d7ca	-0.1326591
216	0x3e422957	0.18961082
217	0xbd96634f	-0.0734316
218	0xbcf65ecc	-0.0300745
219	0xbcdb1dcc	-0.026747607
220	0x3d10559e	0.0352379
221	0x3d001431	0.031269256
222	0x3decd85f	0.11564707
223	0xbd8d3109	-0.06894118
224	0xbe0e3187	-0.1388608
225	0xbdc2910d	-0.095003225
226	0xbe0d528d	-0.13801022
227	0xbde51dfe	-0.11187361
228	0xbd7b2616	-0.06131562
229	0x3dccb232	0.099949256
230	0x3e05839a	0.13038483
231	0xbc0005fd	-0.007813928
232	0xbbc07066	-0.005872774
233	0xbdb4a8f8	-0.08821291
234	0xbd3d03ca	-0.04614619
235	0x3d73a40b	0.059482615
236	0xbc43def7	-0.011955014
237	0xbcaaa27e	-0.020829435
238	0xbb47f01c	-0.0030508107
239	0xbd0ee09c	-0.034882173
240	0x3e8034cd	0.25040284
241	0xbcf9262e	-0.030413713
242	0x3cc4e270	0.024033755
243	0xbe45941e	-0.19294783
244	0xbdd6fc6b	-0.10497364
245	0xbe0975b5	-0.13423808
246	0x3e8b7b1a	0.27242357
247	0xbd6f810f	-0.05847269
248	0x3d79d9a0	0.06099856
249	0xbb962c19	-0.0045828936
250	0xbc394f5b	-0.011310424
251	0xbde6a3f2	-0.11261739
252	0x3d378635	0.044805724
253	0x3cdfdd3a	0.027327169
254	0xbdd8856c	-0.10572323
255	0x3e13e4b4	0.14442712

out.weight f4 [7, 256]
0	0x3d2395c6	0.039937757
1	0x3d502be9	0.050823126
2	0xbe04c633	-0.12966232
3	0xbcbdb785	-0.023158798
4	0xbe52d3f1	-0.20588662
5	0xbe10dd53	-0.14146928
6	0xbb019d69	-0.0019777662
7	0xbe9fe002	-0.31225592
8	0x3d6553db	0.055988174
9	0xbb8b8ccd	-0.004258728
10	0x3dc560e2	0.096376196
11	0x3e7100a9	0.23535408
12	0x3d29d100	0.041459084
13	0xbd87955a	-0.066202834
14	0xbdb90c53	-0.09035554
15	0x3ec60be2	0.3868094
16	0x3e53b1a2	0.2067323
17	0xbc09f7df	-0.0084209135
18	0x3e61884f	0.22024654
19	0x3d3d8c5e	0.046276443
20	0x3d88dd27	0.066828065
21	0x3e2f86d6	0.1714128
22	0xbcc3860a	-0.023867626
23	0x3da92789	0.08259494
24	0x3dadebcd	0.08492241
25	0x3db474ba	0.08811326
26	0x3e7a2ece	0.24431917
27	0x3e5117bd	0.20419212
28	0x3d7c85cd	0.06165104
29	0x3e1cd976	0.1531733
30	0xbc8b2cea	-0.01698919
31	0xbcc57e30	-0.024108022
32	0xbb2985ce	-0.0025867107
33	0xbd2dd078	-0.04243514
34	0x3ea90f40	0.33019447
35	0x3dacdf99	0.08441085
36	0x3e0d6148	0.13806641
37	0x3e484419	0.19557227
38	0x3d5fc3ba	0.05463002
39	0xbe840710	-0.25786638
40	0x3bacdb5f	0.0052751745
41	0xbd8bc822	-0.06825282
42	0x3e338b30	0.17533565
43	0x3db89a3c	0.09013793
44	0x3e8e584d	0.27801743
45	0x3e37f8d8	0.1796602
46	0xbdedcc48	-0.11611229
47	0x3f022297	0.5083403
48	0x3e42e7f4	0.19033796
49	0x3e080add	0.13285394
50	0x3ce8f48f	0.028436927
51	0x3d8e99bf	0.069629185
52	0x3c2da3a7	0.0105981
53	0x3d30238f	0.04300266
54	0x3ebab38f	0.36465117
55	0x3ddcebdc	0.10787174
56	0xbb993cdb	-0.004676444
57	0x3da62d35	0.08114091
58	0xbd6b8f4a	-0.057509698
59	0xbcd6ddba	-0.026228774
60	0xbe16e096	-0.1473411
61	0x3d9f0943	0.077654384
62	0x3cbc4747	0.022983206
63	0xbc89a7d5	-0.016803661
64	0x3d0988b6	0.033577643
65	0xbd1e10b8	-0.038590163
66	0xba2547b4	-0.0006304935
67	0x3d1b7de3	0.03796185
68	0xbcbe6464	-0.02324123
69	0x3e10880b	0.14114396
70	0xbcf5b347	-0.029992713
71	0x3e3d4f3c	0.18487257
72	0x3d5c407e	0.053772442
73	0xbd827dd3	-0.06371655
74	0x3d0de099	0.03463802
75	0xbe579631	-0.21053387
76	0x3bfdebc1	0.0077490513
77	0xbd3f8b88	-0.046763927
78	0xbdba8d9d	-0.09109042
79	0xbcce7ea0	-0.025206864
80	0x3ee8e24f	0.4548516
81	0x3d4537e2	0.048148997
82	0x3d6d3240	0.05790925
83	0xbdd6484d	-0.10463009
84	0xbde3c71c	-0.111219615
85	0x3d253af4	0.040339425
86	0x3e342931	0.17593838
87	0xbcdafba2	-0.026731316
88	0xbd210b2c	-0.039317295
89	0x3e9fe97c	0.31232822
90	0x3e1acd79	0.15117444
91	0x3cc4182d	0.02393731
92	0xba8c5c85	-0.0010708725
93	0x3e34b985	0.17648895
94	0xbcc331ee	-0.02382752
95	0x3e02e4f9	0.12782659
96	0x3c9338ae	0.017971363
97	0x3d7cd8ca	0.061730184
98	0xbd89d170	-0.067294
99	0x3dc2fcfa	0.09520908
100	0x3d52e00e	0.051483206
101	0x3d29667c	0.041357502
102	0x3d93dce0	0.07219863
103	0x3db40c91	0.08791459
104	0x3d9b2a51	0.075764306
105	0xbd4079e6	-0.04699125
106	0x3d0794fd	0.03310107
107	0x3dce61f9	0.100772806
108	0x3de35937	0.11101001
109	0x3d9270d9	0.0715043
110	0x3e022d0c	0.12712497
111	0x3d70887f	0.058723923
112	0x3d045b16	0.03231343
113	0x3e013cb2	0.1262081
114	0x3e7467e5	0.23867758
115	0x3d5f2d7b	0.054486733
116	0xbe3927fe	-0.18081662
117	0xbd9ab39f	-0.07553791
118	0x3d5aa3aa	0.05337874
119	0x3eab6cd7	0.33481476
120	0x3ced4ac6	0.028966319
121	0xbda81c7e	-0.082085595
122	0xbe36af70	-0.17840362
123	0xbcc556e2	-0.02408928
124	0x3d0e0660	0.03467405
125	0x3e473000	0.19451904
126	0x3dc43526	0.0958045
127	0x3e33c5d2	0.17555931
128	0xbd46129f	-0.048357602
129	0x3e13cd59	0.14433803
130	0x3d9a72a3	0.075413965
131	0x3edb3ce3	0.4281989
132	0x3e3658f0	0.17807364
133	0xbd67c58f	-0.05658489
134	0xbe3c2e28	-0.18376982
135	0xbda61eb0	-0.08111322
136	0x3e44c80b	0.19216935
137	0xbcb53caa	-0.022123653
138	0xbb02f3af	-0.0019981673
139	0xbdf526f7	-0.119703226
140	0xbdf97367	-0.121802144
141	0xbe07524a	-0.13214985
142	0x3d726028	0.059173733
143	0x3e4e2d0b	0.2013437
144	0x3cb21406	0.021738064
145	0xbe421240	-0.18952274
146	0xbd39dfe4	-0.045379534
147	0xbd7c6deb	-0.061628263
148	0x3d7d1151	0.061784092
149	0x3d66ac8b	0.056316894
150	0xbd4ae693	-0.0495363
151	0xbcc309c6	-0.023808371
152	0x3e4d6644	0.20058542
153	0xbdc71080	-0.09719944
154	0xbe325817	-0.17416416
155	0xbd86ce1c	-0.06582281
156	0x3ca23ec5	0.019805321
157	0xbdc0d34d	-0.094153024
158	0xbda38162	-0.07983662
159	0x3e19c350	0.15015912
160	0xbbd78c35	-0.0065779933
161	0x3db55f0a	0.08856018
162	0xbdd66de6	-0.1047018
163	0x3d335bcd	0.04378872
164	0xbd1ef8b4	-0.0388114
165	0xbe430ad0	-0.19047093
166	0x3ca81e96	0.020522397
167	0xbe50aeb7	-0.20379148
168	0xbc1cfa0f	-0.009581103
169	0x3d27ba39	0.04094908
170	0xbe3b9c71	-0.18321396
171	0xbe0deb61	-0.13859321
172	0xbdc772ef	-0.09738719
173	0x3e77abbc	0.24186605
174	0x3e849b3e	0.2589969
175	0xbd1fc47e	-0.03900575
176	0x3e125f90	0.14294267
177	0x3dc6c5bb	0.09705683
178	0x3dc77288	0.09738642
179	0x3d6ea75b	0.05826507
180	0x3ce6adb8	0.028159007
181	0x3e6a049f	0.22853325
182	0x3dcc188e	0.09965621
183	0xbd88f130	-0.06686628
184	0x3d853c27	0.06505614
185	0xbd6cba33	-0.05779476
186	0x3d839450	0.06424773
187	0x3e27be6c	0.16381234
188	0xbce69a18	-0.02814965
189	0x3e25a790	0.16177201
190	0xbe1d584e	-0.15365717
191	0x3bbeb018	0.005819332
192	0x3c200dd6	0.009768924
193	0x3dcd5085	0.100251235
194	0x3da26d2d	0.0793098
195	0xbe05df1e	-0.13073394
196	0x3ce8efb9	0.028434621
197	0xbd99b1fa	-0.075046495
198	0x3de14923	0.11000278
199	0x3db0a3a3	0.08624961
200	0xbe84039f	-0.25784013
201	0x3cd2c37b	0.025727978
202	0x3bc61f65	0.006046223
203	0x3e4fc42b	0.20289676
204	0xbdadb83e	-0.08482407
205	0xbe01e544	-0.12685114
206	0x3e2ba550	0.1676228
207	0x3da05a5c	0.07829735
208	0x3d32c50a	0.043644942
209	0x3e8e7307	0.27822134
210	0xbd09a27f	-0.033602234
211	0xbce85f8f	-0.028365878
212	0x3e3e56b0	0.18587756
213	0x3e15e195	0.14636834
214	0x3db9eca8	0.09078342
215	0x3d43026b	0.047609728
216	0x3e84eec2	0.25963408
217	0xbc9f45c5	-0.019442448
218	0xbe5f1580	-0.21785545
219	0xbda82269	-0.08209688
220	0xbe6ff54b	-0.23433416
221	0x3cf49ded	0.029860461
222	0x3e501f05	0.20324333
223	0x399cc306	0.00029899942
224	0x3b832221	0.004001871
225	0xbcd41a37	-0.025891406
226	0x3bc19c9f	0.0059085633
227	0x3d1fc16d	0.039002825
228	0xbe372b76	-0.17887673
229	0x3df5225b	0.119694434
230	0x3e17f158	0.14838159
231	0x3d289705	0.04115965
232	0x3d32646a	0.043552794
233	0x3db8c869	0.090226
234	0xbcd5cdb6	-0.026099067
235	0x3e042fee	0.12908909
236	0xbcb62f40	-0.022239327
237	0xbde6db4a	-0.11272295
238	0xbb058b9a	-0.0020377398
239	0xbe1cd4fc	-0.15315622
240	0x3e16c625	0.14724024
241	0x3ca71fc7	0.020400895
242	0xbdbc236a	-0.09186442
243	0x3b7db1ec	0.0038710786
244	0x3e347c4d	0.17625542
245	0x3d93b273	0.07211771
246	0xbd13b09b	-0.036057096
247	0x3da68548	0.0813089
248	0xbdbdb335	-0.09262697
249	0x3ce6abc8	0.028158084
250	0xbc88b484	-0.016687639
251	0xbd6977e3	-0.0569991
252	0x3e8bf308	0.27333856
253	0x3dc5e3f5	0.0966262
254	0xbc5279bd	-0.0128464075
255	0x3e108f9f	0.14117287

out.bias f4 [7]
0	0x3c5637cf	0.013074829
1	0x3e990214	0.29884398
2	0x3d0167a0	0.031592965
3	0x3e8bc4c6	0.27298564
4	0x3eb3f03b	0.3514422
5	0x3d6e6e3b	0.058210593
6	0x3dae2d87	0.085047774
