scenario_runner0915/adv_lib/adv_model/newest_no_wall.onnx (onnx, 146145 bytes, 6 tensors)

fc1.weight f4 [128, 11]
0	0x3e32867e	0.17434117
1	0xbd22be97	-0.039732542
2	0x3ee8af68	0.45446324
3	0xbd7ce3c7	-0.061740663
4	0x3d693021	0.056930665
5	0xbe425cec	-0.1898076
6	0xbf006780	-0.5015793
7	0xbc0d1ea8	-0.008613266
8	0x3e1965ac	0.14980191
9	0xbe8d1a98	-0.27559352
10	0xbdcf6097	-0.10125845
11	0xbd36afdb	-0.044601303
12	0x3d8b8f2b	0.068144165
13	0xbe1fcec7	-0.15606223
14	0x3e1e6787	0.1546918
15	0xbe251bd1	-0.16123892
16	0x3e5b84f2	0.21437433
17	0xbe9df6cd	-0.30852357
18	0xbe7118cb	-0.23544614
19	0x3e0111ec	0.12604493
20	0x3d5fb9e6	0.054620646
21	0xbee306d0	-0.44341135
22	0xbe4c20e6	-0.19934425
23	0x3ddf049c	0.10889551
24	0xbe4606be	-0.1933851
25	0x3e254a2c	0.16141576
26	0x3b760e65	0.00375452
27	0x3d9d4e9d	0.0768101
28	0x3e4da934	0.20084077
29	0xbdf37952	-0.118883744
30	0xbe95baaf	-0.2924399
31	0xbe2ab9e9	-0.16672482
32	0x3ede0b83	0.43368158
33	0xbd382245	-0.044954557
34	0xbb0d85f6	-0.002159474
35	0xbf1499de	-0.5804728
36	0x3d0d67a2	0.03452266
37	0xbd9fe993	-0.078082226
38	0x3de52b30	0.11189878
39	0x3f6c00ca	0.92188704
40	0x3ec0c2e9	0.37648705
41	0xbe3311b4	-0.17487222
42	0xbdc639a3	-0.09678962
43	0x3e3e6f53	0.18597154
44	0x3d848247	0.06470161
45	0x3e785c84	0.24254042
46	0x3ec005af	0.37504336
47	0x3e095890	0.1341269
48	0x3d819b05	0.06328396
49	0x3e931ab0	0.28731298
50	0xbddc323c	-0.10751769
51	0xbd29a32b	-0.041415375
52	0x3e84e3de	0.259551
53	0xbeb54900	-0.35407257
54	0xbda778c8	-0.08177334
55	0x3d13368b	0.035940688
56	0x3e0025d0	0.12514424
57	0x3ea0c632	0.3140121
58	0x3e6c0bd9	0.23051395
59	0x3e06f736	0.13180241
60	0x3e92f73a	0.28704244
61	0xbf16e9dc	-0.5895059
62	0xbee292b1	-0.44252542
63	0x3e6e15fc	0.23250574
64	0x3e0f0482	0.13966563
65	0xbeb22c62	-0.34799486
66	0x3dd803be	0.10547589
67	0x3d97bc53	0.07408967
68	0x3e09a4f5	0.13441832
69	0xbcb5893d	-0.022160167
70	0xbdf2576e	-0.11833082
71	0xbd83814c	-0.06421146
72	0x3e565af8	0.2093314
73	0x3e45d439	0.19319238
74	0xbe486753	-0.19570665
75	0xbf05b6cc	-0.5223205
76	0x3e1b6d53	0.15178423
77	0x3d627bcc	0.055293843
78	0xbdf3561c	-0.118816584
79	0xbdf9f994	-0.122058064
80	0xbe09f53d	-0.13472457
81	0x3e451618	0.1924671
82	0xbf063b2a	-0.5243403
83	0xbf49bffd	-0.78808576
84	0x3e9cf9d7	0.30659363
85	0x3c96585e	0.018352684
86	0x3dd6b705	0.10484127
87	0xbe9641e5	-0.2934715
88	0x3e7ba224	0.2457357
89	0xbe824c68	-0.25448918
90	0xbea7719f	-0.32703874
91	0xbe2c7380	-0.16840935
92	0x3e14f7b6	0.14547619
93	0xbef2d596	-0.47428578
94	0xbe44294b	-0.19156377
95	0x3e53ab04	0.20670706
96	0x3d92d701	0.07169915
97	0xbe8bb253	-0.27284488
98	0xbc7e8ca2	-0.015536459
99	0xbdb71a0b	-0.08940514
100	0x3da043b9	0.07825417
101	0x3e0f2b19	0.13981284
102	0x3d4a3896	0.04937037
103	0x3cfb82ce	0.030702021
104	0x3e66bfd9	0.22534122
105	0x3efc85d1	0.49320844
106	0xbe922e34	-0.28550875
107	0xbe70e19c	-0.23523563
108	0x3b945a88	0.0045273937
109	0x3ee87cfb	0.45407853
110	0x3dcd38d7	0.10020607
111	0x3c8d82f1	0.017274352
112	0xbdbd712e	-0.09250103
113	0xbc1b0ba8	-0.009463228
114	0xbd05687e	-0.032570355
115	0xbc9b2cdf	-0.018942295
116	0xbc640b87	-0.013918764
117	0xbe8288e3	-0.2549506
118	0x3e8b146e	0.27164024
119	0x3d9d4467	0.07679062
120	0xbdca8e62	-0.098904386
121	0x3c2b2bc9	0.010447451
122	0x3c329a9b	0.010901119
123	0x3ce4dea6	0.027938198
124	0x3e05428b	0.13013665
125	0x3e7ebe4b	0.24877279
126	0x3e1cf3ed	0.15327425
127	0xbd741ee4	-0.059599772
128	0xbe407f38	-0.1879853
129	0xbeceda0b	-0.4040073
130	0xbd96a74b	-0.07356127
131	0x3e9483ea	0.29006892
132	0x3d29b01b	0.041427713
133	0xbcaa7d2f	-0.020811645
134	0x3eedfcf6	0.46482056
135	0xbd184abd	-0.03718065
136	0xbe2e31d2	-0.17011192
137	0xbe9fac4f	-0.3118615
138	0xbe59605f	-0.21228169
139	0xbe499b3c	-0.19688123
140	0xbdad7eee	-0.084714755
141	0xbe93a02e	-0.28833145
142	0x3af6ac4e	0.0018819661
143	0x3db0802e	0.08618198
144	0x3db738f4	0.0894641
145	0x3f157b92	0.5839168
146	0x3e1b3ebd	0.15160652
147	0xbe052249	-0.1300136
148	0x3e1fb227	0.15595303
149	0xbe407c01	-0.18797304
150	0xbe2e3509	-0.17012419
151	0x3ca2fb92	0.019895349
152	0xbe7c20cb	-0.24621885
153	0xbd4603bb	-0.0483434
154	0xbdc20887	-0.09474283
155	0x3d354757	0.044257488
156	0xbe4a5dad	-0.19762297
157	0x3db56f01	0.08859063
158	0x3df77aeb	0.120839916
159	0x3ec3fb77	0.3827779
160	0x3e90d2ff	0.28285977
161	0xbf444969	-0.76674515
162	0xbe4148ca	-0.18875423
163	0xbe15fac3	-0.14646439
164	0x3e56e313	0.2098506
165	0x3cd1ed5f	0.025625883
166	0xbd10d807	-0.03536227
167	0x3d940132	0.072267905
168	0x3dc77c64	0.097405225
169	0xbe171339	-0.14753427
170	0xbdcd5699	-0.10026283
171	0xbe0ccf20	-0.13750887
172	0xbe052af1	-0.13004662
173	0x3e3e923d	0.18610473
174	0xbca699b0	-0.020336956
175	0xbe09a1d8	-0.13440645
176	0x3d5c1002	0.053726204
177	0xbe2c1064	-0.16803128
178	0x3e41280a	0.1886293
179	0xbdc275a2	-0.09495093
180	0xbe5d799f	-0.21628426
181	0xbea522d0	-0.32253122
182	0xbe84e36a	-0.25954753
183	0xbd2fb58a	-0.04289774
184	0xbdc7a56b	-0.09748348
185	0xbcefbacd	-0.029263878
186	0xbd2c55f3	-0.042074155
187	0xbc6bad3b	-0.014384563
188	0x3e78d934	0.24301606
189	0x3e40622a	0.18787447
190	0x3f008d93	0.50216025
191	0xbdabbe88	-0.0838595
192	0x3ee53f25	0.44774738
193	0xbd7d3564	-0.061818495
194	0xbed2dfbd	-0.41186324
195	0x3da0c9a0	0.07850957
196	0x3d80ca45	0.0628858
197	0xbe1f367a	-0.15548125
198	0x3d650a6d	0.055918146
199	0xbeb69467	-0.35660097
200	0xbe8465e4	-0.25858986
201	0xbe5d8020	-0.21630907
202	0x3d0e7217	0.034776773
203	0xbf67abc7	-0.90496486
204	0x3ef8a7a6	0.48565406
205	0xbcf167c1	-0.029468419
206	0x3e2ef8be	0.17087075
207	0xbdacd82c	-0.08439669
208	0xbe2564ea	-0.16151777
209	0x3eb27513	0.34854946
210	0x3da66ff4	0.08126822
211	0xbe565d39	-0.20933999
212	0x3dc4ded5	0.09612814
213	0x3e517433	0.20454483
214	0x3e994978	0.29938865
215	0xbd27dbeb	-0.040981214
216	0xbc846a66	-0.016164016
217	0x3b8be749	0.0042695147
218	0xbe93ec9a	-0.2889145
219	0x3d55e3f7	0.052219357
220	0x3e041985	0.1290036
221	0x3e834e45	0.25645652
222	0xbda8f3c5	-0.0824962
223	0xbef3f2f9	-0.4764631
224	0xbdbddbaf	-0.09270417
225	0xbeb5f56f	-0.35538813
226	0x3ed9ae2b	0.42515692
227	0x3d8d21d8	0.06891221
228	0xbd9915d8	-0.074748695
229	0xbea9579b	-0.3307465
230	0x3ea1738e	0.31533474
231	0x3d1d30ca	0.038376607
232	0xbdef3c8f	-0.116814725
233	0xbe973d04	-0.2953874
234	0x3c8cb125	0.017174313
235	0xbe980b6f	-0.29696223
236	0x3f4b537a	0.7942425
237	0x3ecf5db3	0.40501174
238	0x3cfe05ff	0.031008719
239	0xbe0dca4e	-0.13846704
240	0xbd0a9c35	-0.033840377
241	0xbdf0caaf	-0.11757409
242	0x3e06859b	0.13136904
243	0x3ea69a96	0.32539815
244	0xbe71f91a	-0.23630181
245	0xbea4c026	-0.32177848
246	0x3c540b94	0.012942214
247	0xbdeb22ba	-0.11481233
248	0x3f2d9984	0.6781237
249	0x3d8492a2	0.064732805
250	0xbe7d3c4e	-0.24730036
251	0xbdf15624	-0.11784008
252	0x3e6b4956	0.22977194
253	0x3dc4dc0a	0.096122816
254	0x3d8704bc	0.065927
255	0xbe0b57d8	-0.13607728

fc1.bias f4 [128]
0	0xbe183c69	-0.14866795
1	0xbf13d3b6	-0.5774492
2	0x3f2bf125	0.6716483
3	0x3e94e976	0.29084367
4	0xbe26d9dc	-0.16294044
5	0xbf1f73bb	-0.62285966
6	0x3e8c0ce1	0.27353576
7	0xbf062118	-0.5239425
8	0x3d1f831a	0.038943388
9	0x3f25c75d	0.6475733
10	0x3c98342f	0.01857957
11	0x3f06d1c8	0.5266385
12	0xbc93602b	-0.017990192
13	0xbc7a4651	-0.015275554
14	0x3f0384da	0.5137459
15	0xbe24c158	-0.1608938
16	0x3e53490c	0.20633334
17	0xbe77e4a7	-0.24208318
18	0xbea96798	-0.33086848
19	0x3e77f4e7	0.24214517
20	0x3e269415	0.16267426
21	0x3e68cc60	0.22734213
22	0x3ddaa37a	0.10675712
23	0xbd72af29	-0.059249077
24	0xbee620f1	-0.44947007
25	0x3e4984f0	0.19679618
26	0x3dc6b227	0.097019486
27	0x3e21c285	0.1579686
28	0xbe9cb2e8	-0.30605245
29	0xbf0ab9bb	-0.5418965
30	0x3f0ffd42	0.56245816
31	0x3e9b03b9	0.30276278
32	0xbe05f1b6	-0.13080487
33	0x3e4dfba9	0.20115532
34	0xbd87f177	-0.06637853
35	0x3cd9c908	0.026585117
36	0xbdb3b90c	-0.08775529
37	0x3e992d37	0.2991731
38	0x3e5c380b	0.21505754
39	0xbeae31c0	-0.3402233
40	0xbe7ea888	-0.24868977
41	0xbded114e	-0.11575566
42	0x3d039839	0.032127593
43	0xbef727dc	-0.48272598
44	0x3e942c5a	0.28940088
45	0x3ec56221	0.3855143
46	0xbddff169	-0.10934717
47	0xbe5b373f	-0.21407793
48	0x3e5094ab	0.20369212
49	0xbc4d5658	-0.012532793
50	0x359e4fdd	1.1795161e-06
51	0xbf35aa51	-0.7096301
52	0xbe6e1293	-0.23249273
53	0xbea94a3e	-0.33064455
54	0x3ea5706b	0.3231233
55	0xbeadaf08	-0.339226
56	0xbb9a1a87	-0.0047028693
57	0x3d14e131	0.03634757
58	0xbe26f215	-0.16303284
59	0xbcf5b76d	-0.02999469
60	0xbf03f421	-0.51544386
61	0xbe2a756e	-0.16646358
62	0x3e8d7743	0.27630052
63	0xbe114221	-0.14185382
64	0xbf4fbcd4	-0.81147504
65	0xbe650b5c	-0.22367615
66	0xbe063ab7	-0.13108335
67	0x3d4f6869	0.050636683
68	0xbcdc56e6	-0.026896905
69	0x3e8ec317	0.27883217
70	0xbec7e96d	-0.39045277
71	0x3ea299ab	0.31757864
72	0x3ed78a57	0.42097732
73	0x3e6dbb29	0.23215927
74	0x3f119ca1	0.5687962
75	0xbeb5bf68	-0.35497594
76	0xbe1f3941	-0.15549184
77	0xbc78fb3d	-0.015196619
78	0x3e80292f	0.2503142
79	0x3e876963	0.2644759
80	0x3f12414a	0.57130873
81	0x3ed77a1f	0.42085359
82	0x3e959567	0.29215547
83	0xbe4b8f68	-0.19878924
84	0x3e2c7164	0.1684013
85	0x3f261c87	0.6488728
86	0x3f0f9d64	0.56099534
87	0x3e840798	0.25787044
88	0xbe91a566	-0.28446501
89	0x3e47b055	0.19500859
90	0x3e31df9f	0.17370461
91	0xbe208a81	-0.15677835
92	0xbe3e8dcf	-0.18608783
93	0xbe7cbb20	-0.24680758
94	0xbd3c79f9	-0.04601476
95	0x3ee8ea31	0.45491174
96	0x3e30fb00	0.17283249
97	0x3ea3a3e4	0.31960976
98	0x3e759ef3	0.23986416
99	0x3da17c7c	0.07885072
100	0x3ea8860f	0.3291478
101	0x3ed818e6	0.42206496
102	0x3e5c8322	0.21534398
103	0xbd817f4a	-0.063231066
104	0x3e8f1a74	0.2794987
105	0x3d512c00	0.051067352
106	0x3ea933a1	0.33047202
107	0xbe628056	-0.22119269
108	0xbdf3ee34	-0.11910668
109	0x3e611286	0.21979722
110	0x3e910c04	0.2832948
111	0xbc1bd560	-0.009511322
112	0x3d271436	0.04079076
113	0x3d5facd5	0.054608185
114	0x3dfede54	0.124447495
115	0x3f0bcf2f	0.5461301
116	0xbea6d9ee	-0.32588142
117	0x3d47e52e	0.048802547
118	0x3f126953	0.5719196
119	0xbe69b8a4	-0.22824341
120	0xbe3bf56c	-0.1835534
121	0x3dfe2589	0.12409503
122	0xbd545713	-0.051840853
123	0xbe7b863d	-0.24562927
124	0x3e9c2d80	0.30503464
125	0xbe66cc64	-0.22538906
126	0x3ec771e1	0.3895407
127	0x3e52436c	0.20533532

fc2.weight f4 [256, 128]
0	0xbe650efe	-0.22369
1	0x3c42f63c	0.011899527
2	0x3e783ba2	0.24241498
3	0xbf754364	-0.95805955
4	0x3d3e8589	0.046514068
5	0xbea7fa91	-0.32808354
6	0xbe610014	-0.21972686
7	0xbdaa560a	-0.08317192
8	0xbd8be50b	-0.06830796
9	0xbc74ce3b	-0.014941747
10	0x3d823805	0.06358341
11	0xbdef5683	-0.11686423
12	0xbed758e2	-0.4206
13	0xbeca86af	-0.3955588
14	0xbd4aaadf	-0.04947936
15	0xbdfbdbbe	-0.12297772
16	0xbe831344	-0.25600636
17	0x3e2b777b	0.16744797
18	0x3e35875b	0.17727415
19	0xbe3d07d6	-0.1846002
20	0x3d9d27cd	0.07673607
21	0xbe8eabb6	-0.2786538
22	0x3e73f2b7	0.23823057
23	0x3e85a37d	0.26101294
24	0xbf04de28	-0.51901484
25	0xbe5f7236	-0.21820912
26	0xbd3913a2	-0.04518474
27	0x3d899a9b	0.06718942
28	0xbdfce8a3	-0.123490594
29	0xbf075be4	-0.5287459
30	0xbe11bf7d	-0.14233203
31	0xbd05e5f4	-0.032690004
32	0xbde47fa0	-0.11157155
33	0xbe8481a3	-0.25880155
34	0xbe47f5ef	-0.1952741
35	0x3dd7cc08	0.10536963
36	0xbdd1e206	-0.10248189
37	0xbed768d6	-0.4207217
38	0x3e3907ca	0.18069378
39	0xbe3b5766	-0.18295059
40	0x3e013292	0.12616947
41	0x3c3bcb72	0.011462079
42	0xbf280667	-0.6563477
43	0xbe795e1d	-0.24352308
44	0x3e4050dc	0.18780845
45	0xbefcfac3	-0.49410066
46	0xbda00596	-0.078135654
47	0xbc28f678	-0.010312669
48	0xbf554e28	-0.8332238
49	0x3dc464de	0.095895514
50	0xbee65df0	-0.44993544
51	0xbd4c1a1a	-0.04982958
52	0xbf3b55dc	-0.73177886
53	0xbe227d7b	-0.1586818
54	0xbd050a54	-0.032480553
55	0xbd3b9c29	-0.045803223
56	0x3d5e1d53	0.054227185
57	0x3dc05213	0.093906544
58	0xbd0aaf68	-0.033858687
59	0xbef3155b	-0.4747723
60	0xbc2a36b5	-0.01038902
61	0x3dcb49dd	0.09926198
62	0x3e8a2f35	0.2698914
63	0x3d25de38	0.040495127
64	0xbc097439	-0.008389526
65	0x3db16870	0.08662498
66	0x3ded61ca	0.115909174
67	0xbefb85b6	-0.4912545
68	0xbd81d979	-0.06340308
69	0x3e280fa9	0.16412224
70	0xbcc89d7f	-0.024489162
71	0xbefaf47d	-0.49014655
72	0x3baf3fe4	0.0053481925
73	0x3e1e78cd	0.1547577
74	0xbdc0666b	-0.09394535
75	0x3bf8a905	0.007588508
76	0x3de136f7	0.10996812
77	0x3e10b833	0.14132766
78	0x3d230880	0.039803028
79	0xbe9c35fa	-0.3050993
80	0xbde1b278	-0.11020368
81	0xbc7765d0	-0.015099958
82	0xbe8614a2	-0.26187617
83	0x3cbb53f0	0.022867173
84	0x3e4a27c8	0.19741738
85	0xbb6f76bd	-0.003653928
86	0x3caff757	0.021480246
87	0x3db5a203	0.08868792
88	0xbed155c4	-0.40885746
89	0xbdc00ae1	-0.09377075
90	0x3e8d55a7	0.2760441
91	0xbc9cb075	-0.01912711
92	0xbd643732	-0.0557167
93	0xbd846231	-0.06464041
94	0xbe4a45f3	-0.19753246
95	0x3e4058f6	0.18783936
96	0xbeb6dbde	-0.3571462
97	0xbd653f29	-0.055968437
98	0x3e5f91c0	0.21832943
99	0xbe3a7f9e	-0.18212745
100	0x3f06517c	0.52468085
101	0x3e62df9b	0.22155611
102	0xbd724d1b	-0.059155565
103	0xbddb5ae0	-0.107106924
104	0x3e73d60f	0.23812126
105	0xbf17f817	-0.5936293
106	0xbe02e234	-0.12781602
107	0xbe286d8b	-0.16448037
108	0x3eb2c91a	0.34919053
109	0xbced5afc	-0.028974049
110	0xbe4a0940	-0.19730091
111	0xbf543139	-0.8288761
112	0xbdcc3b28	-0.09972221
113	0x3dda0f32	0.106474295
114	0xbda4069a	-0.08009072
115	0x3e53c39e	0.20680091
116	0xbd8fda47	-0.07024055
117	0x3e9387bc	0.28814495
118	0xbd26317b	-0.040574532
119	0x3e3e4960	0.18582678
120	0x3cf8e17c	0.030380957
121	0xbf02a42d	-0.5103176
122	0xbdfda3bf	-0.12384748
123	0x3e05f547	0.13081847
124	0x3c9e5fc7	0.01933278
125	0xbe705d41	-0.23473074
126	0x3e42b9f3	0.19016246
127	0xbe6d5a5f	-0.23179005
128	0xbcca5091	-0.02469662
129	0xbc8a6d43	-0.016897803
130	0x3e9cdbf7	0.3063657
131	0xbd9ee760	-0.07758975
132	0xbdedbf45	-0.116087474
133	0xbe3a3708	-0.18185055
134	0xbe19416b	-0.14966361
135	0xbe4f74c5	-0.20259388
136	0xbdf35fd3	-0.118835114
137	0x3d0f99fb	0.035058957
138	0x3db4d276	0.08829205
139	0x3e48041f	0.19532822
140	0xbe92fc7d	-0.28708258
141	0xbd8e2813	-0.06941237
142	0x3e85831e	0.26076597
143	0x3dafdeca	0.085874155
144	0xbd75399b	-0.05986939
145	0x3c929bdb	0.017896583
146	0xbcdd7f39	-0.027038204
147	0x3d21fbfd	0.039546955
148	0x3e592cd2	0.21208504
149	0xbe4108a5	-0.18850954
150	0x3e6dbd76	0.23216805
151	0x3d1d5b34	0.038417056
152	0xbd44ad57	-0.048016872
153	0x3d899641	0.06718112
154	0x3d2d32ac	0.042284653
155	0x3d47bc49	0.048763547
156	0xbd3019e5	-0.042993445
157	0xbe5cd0bf	-0.21564005
158	0x3ce5330a	0.027978439
159	0x3c898da4	0.016791172
160	0xbd44554d	-0.04793291
161	0xbe388f8e	-0.18023512
162	0xbe8f80b3	-0.28027877
163	0xbd9b2a2c	-0.07576403
164	0xbd2aceee	-0.04170125
165	0xbe81d527	-0.25357935
166	0xbd1858d7	-0.0371941
167	0xbd7d7cfb	-0.06188677
168	0xbe8ae26e	-0.27125877
169	0x3cfbbbf5	0.030729273
170	0xbe6051e0	-0.21906233
171	0x3d9e417c	0.07727334
172	0xbce0a67c	-0.027423136
173	0xbf133d07	-0.57514995
174	0xbed9f0b9	-0.4256647
175	0xbe9fe2be	-0.31227678
176	0xbe82113a	-0.25403768
177	0x3d4e0d20	0.050305486
178	0xbece91d5	-0.40345636
179	0xbe2d64a0	-0.16932917
180	0xbedcfe0c	-0.43162572
181	0xbce87792	-0.028377328
182	0x3e225ab8	0.15854919
183	0xbde3ae35	-0.11117212
184	0x3d240968	0.040048033
185	0x3d016455	0.031589825
186	0xbc927e7f	-0.017882584
187	0xbda8cb66	-0.0824192
188	0xbc571b10	-0.013129011
189	0x3e457122	0.19281438
190	0xbdaf3db5	-0.085566916
191	0x3d015869	0.031578455
192	0xbeb44372	-0.35207707
193	0x3d7d7653	0.06188042
194	0x3d8f665c	0.070019454
195	0xbd99cca2	-0.07509734
196	0x3dfe74b4	0.12424603
197	0xbe0f97ad	-0.14022703
198	0xbd8b5a17	-0.06804293
199	0xbd9ebcec	-0.07750878
200	0x3e8f0e71	0.27940705
201	0x3d0f7e94	0.035032824
202	0x3dc189ef	0.09450137
203	0xbd37ec2c	-0.044902965
204	0xbe044849	-0.129182
205	0x3d862661	0.06550289
206	0xbcc7c31c	-0.024385028
207	0x3e545887	0.20736896
208	0xbdbad247	-0.091221385
209	0xbd5ace37	-0.053419318
210	0x3e62e0a0	0.22156
211	0x3c658c38	0.014010482
212	0x3e9a1f50	0.30102015
213	0x3e82a53f	0.25516698
214	0x3e36aed5	0.1784013
215	0x3de261c3	0.11053803
216	0xbbe0d10d	-0.0068608583
217	0xbd886e1b	-0.06661626
218	0x3d87d2e4	0.06632021
219	0xbd8dd35c	-0.06925079
220	0x3cdaa22f	0.026688663
221	0x3ca55bea	0.02018543
222	0x3d607a76	0.054804288
223	0x3e0342db	0.12818472
224	0xbea2eb10	-0.31819963
225	0x3c4aedee	0.012385828
226	0xbe92c93d	-0.28669158
227	0x3d132281	0.035921577
228	0xbe0171ba	-0.1264104
229	0x3e5449c7	0.20731269
230	0x3da2749f	0.079324
231	0x3d814340	0.06311655
232	0xbd9151ec	-0.070957035
233	0xbe9525d0	-0.2913041
234	0x3d877f02	0.06616022
235	0xbe4602a4	-0.19336945
236	0xbd4c0004	-0.049804702
237	0xbc5e7e44	-0.013579909
238	0xbc9655eb	-0.018351516
239	0x3d61b3ad	0.055102993
240	0xbe5d4080	-0.21606636
241	0x3e0c1080	0.13678169
242	0xbd9b3a14	-0.07579437
243	0xbdc3b12c	-0.09555277
244	0xbe261569	-0.16219105
245	0x3e0f1609	0.1397325
246	0x3e6c501b	0.23077433
247	0xbe097887	-0.13424884
248	0x3de0146d	0.10941396
249	0xbed019fd	-0.40644827
250	0x3e515dd7	0.20445953
251	0xbd8c8fcb	-0.06863364
252	0x3e6339a5	0.22189958
253	0xbd22c37d	-0.039737213
254	0x3d09c94c	0.033639237
255	0xbe94998f	-0.29023406

fc2.bias f4 [256]
0	0x3e2524b6	0.16127285
1	0x3eb038cd	0.34418336
2	0x3e14f2da	0.14545766
3	0xbea31e37	-0.3185899
4	0xbe1a3f1e	-0.1506314
5	0xbdbf6af2	-0.0934657
6	0xbde1da26	-0.11027937
7	0xbc08e656	-0.008355698
8	0x3cf1cb0d	0.029515767
9	0x3d5cdcd9	0.053921554
10	0xbd1b8b9e	-0.037974946
11	0x3e68f05b	0.22747938
12	0x3d18605c	0.03720127
13	0xbe090a12	-0.13382748
14	0xbdd48610	-0.10377133
15	0xbd92b514	-0.07163444
16	0x3e2551b0	0.16144443
17	0x3e0d1a94	0.1377967
18	0x3e4137df	0.1886897
19	0x3eb4eb9f	0.35336015
20	0xbe150d8d	-0.1455595
21	0x3e9bf91b	0.3046349
22	0x3d7e97e2	0.062156565
23	0x3ef54bce	0.47909397
24	0xbcf7150c	-0.030161403
25	0x3c6a778b	0.014310728
26	0xbdd940a3	-0.106080316
27	0x3d674875	0.056465585
28	0x3c0dc0ee	0.008651955
29	0x3bed5fce	0.007244087
30	0xbc96a83a	-0.018390764
31	0xbd613ae6	-0.05498781
32	0xbd96d000	-0.073638916
33	0xbd4fe746	-0.05075767
34	0x3b9517cc	0.004549956
35	0xbd9b3036	-0.07577555
36	0xbd29d8ce	-0.041466527
37	0x3cac31d2	0.02101985
38	0xbd7f5295	-0.062334616
39	0x3c17782d	0.009244961
40	0x3d66ea4f	0.056375798
41	0x3ced3025	0.028953621
42	0xbdb02fe1	-0.08602882
43	0x3ed23883	0.4105874
44	0x3ec52b54	0.3850962
45	0xbd1e4031	-0.038635436
46	0xbd935315	-0.07193581
47	0xbddd93d0	-0.108192086
48	0x3c3fd394	0.011708159
49	0x3ed430c4	0.41443455
50	0x3ed53240	0.416399
51	0xbdea615f	-0.11444353
52	0xbd53ddd8	-0.05172524
53	0x3e776378	0.24159038
54	0x3de2ebbc	0.11080119
55	0xbdd34ab9	-0.103169866
56	0xbe025fc7	-0.12731849
57	0x3c80c6b7	0.015719755
58	0xbddb4049	-0.10705621
59	0xbdcc2432	-0.09967841
60	0x3d0748b6	0.033028327
61	0xbe0036bf	-0.12520884
62	0x3ea5eaf1	0.3240581
63	0x3e27a152	0.16370133
64	0xbd81bbf1	-0.06334675
65	0x3d960e7b	0.07326981
66	0xbcd49083	-0.025947815
67	0xbc7942dc	-0.015213694
68	0x39babbcc	0.00035616604
69	0x3cd9f6cb	0.026606938
70	0x3e2785e4	0.16359669
71	0x3ea371f3	0.31922874
72	0x3b39eb11	0.002836887
73	0x3e900642	0.28129774
74	0x3d966ce0	0.07344985
75	0x3d34ca1d	0.044138063
76	0x3acbd094	0.0015549832
77	0x3ed1d570	0.40983152
78	0x3cc80cf0	0.024420232
79	0x3e24477f	0.16042899
80	0x3eb812e3	0.3595191
81	0xbc83ae00	-0.01607418
82	0x3d548b59	0.051890705
83	0xbd8feba3	-0.07027366
84	0xbd2d5284	-0.04231502
85	0x3e024f48	0.12725556
86	0x3cb6c315	0.02230982
87	0xbce6b6e5	-0.028163383
88	0xbdffd448	-0.12491661
89	0x3ea12d9c	0.3148011
90	0x3d6a464e	0.057195954
91	0x3f0de03d	0.55420285
92	0x3d102172	0.035188146
93	0xbddf288e	-0.10896407
94	0x3b8d2b37	0.00430813
95	0xbd9c4263	-0.0762985
96	0xbcd62b77	-0.026143773
97	0x3d5f9b4b	0.05459146
98	0x3ddb80bc	0.107179135
99	0x3ef5a3d0	0.47976542
100	0x3eaaa3a6	0.3332798
101	0x3e68d728	0.22738326
102	0x3f0115ce	0.50423896
103	0x3ef53dc8	0.47898698
104	0x3e914b08	0.28377557
105	0xbb6096b9	-0.0034269525
106	0xbd512f04	-0.05107023
107	0x3d5fb13e	0.05461239
108	0x3e9f74d3	0.31143817
109	0xbb65a589	-0.0035041294
110	0xbd8cb0fb	-0.06869694
111	0x3f09c5c1	0.53817374
112	0x3cb08bca	0.021551032
113	0x3cd6c3c6	0.026216399
114	0x3ef6cbe2	0.48202425
115	0x3e00681f	0.12539719
116	0xbddba224	-0.10724285
117	0x3ea18d47	0.315531
118	0x3d305b81	0.043056015
119	0xbbf49670	-0.0074642226
120	0xbd60c3d4	-0.054874256
121	0xbd1c9d56	-0.038235985
122	0xbd043f6e	-0.032287054
123	0x3ef953f0	0.48696852
124	0xbdd8eeba	-0.105924085
125	0x3e244ac0	0.1604414
126	0x3f20cb8c	0.6281059
127	0x3e884c59	0.2662075
128	0xbc84f79c	-0.01623135
129	0xbd5a2d70	-0.05326599
130	0xbdca7fd4	-0.098876625
131	0x3d5af5fb	0.05345724
132	0xbd2c6534	-0.042088702
133	0xbd957ad3	-0.072988175
134	0xbd470381	-0.048587326
135	0xbe4ed685	-0.2019902
136	0x38ce504c	9.837802e-05
137	0xbdabc3c3	-0.08386948
138	0xbdcd3ddf	-0.100215666
139	0x3d4b2fee	0.049606256
140	0x3c96e0e3	0.018417781
141	0xbdebe3ea	-0.115180805
142	0x3eaafa1a	0.33393937
143	0x3eb5e4fb	0.3552626
144	0x3eafc2fb	0.34328446
145	0xbe174df6	-0.14775833
146	0xbd63aefb	-0.055586796
147	0xbd8c5548	-0.068522036
148	0x3e044748	0.12917817
149	0x3e8d36ca	0.27580863
150	0x3a2de0e1	0.0006632936
151	0x3edb2841	0.4280415
152	0x3e3e7f12	0.18603161
153	0xbc0d5d03	-0.008628133
154	0x3d9b2fc1	0.07577468
155	0xbdcbb71e	-0.09947036
156	0x3d9310c4	0.07180932
157	0x3dea0c80	0.114281654
158	0xbd8579a5	-0.065173425
159	0xbc5752c7	-0.013142294
160	0xbdcbc9fc	-0.09950635
161	0xbda9eaa8	-0.0829671
162	0xbdd6bd54	-0.1048533
163	0x3cda726c	0.026665889
164	0x3e089a89	0.133402
165	0xbdecf34f	-0.11569845
166	0xbd67d573	-0.056600045
167	0xbd4e2ccb	-0.050335687
168	0x3d0d2414	0.034458235
169	0x3ec27ebc	0.37987316
170	0xba048a06	-0.00050559675
171	0xbda9425c	-0.0826461
172	0x3d97b8c3	0.074082874
173	0x3d3ded7b	0.046369057
174	0x3f06a274	0.52591634
175	0xbcec377e	-0.028835054
176	0x3ef05264	0.4693786
177	0x3cfe6856	0.03105561
178	0x3d670b10	0.056407034
179	0xbce4f1c9	-0.027947323
180	0x3e14f2af	0.14545701
181	0x3e9ff0e6	0.31238478
182	0x3ef01c82	0.4689675
183	0x3d9e1351	0.07718528
184	0x3e9a51ed	0.3014063
185	0xb83c922d	-4.495883e-05
186	0x3c22c222	0.00993398
187	0xbdd2f11b	-0.102998935
188	0x3e7da3c9	0.2476951
189	0xbd35b190	-0.04435879
190	0x3e392dad	0.1808383
191	0xbddf1361	-0.10892368
192	0xbdc799fa	-0.097461656
193	0xbd423051	-0.04740936
194	0x3e7a8c8d	0.24467678
195	0x3e3bcf8d	0.18340893
196	0x3c6ab588	0.014325507
197	0xbc03d97d	-0.008047459
198	0xbdc5df07	-0.0966168
199	0x3e0a5ede	0.13512751
200	0x3ecb510e	0.39710277
201	0xbde73292	-0.112889424
202	0x3deab837	0.114609174
203	0x3edac192	0.42725807
204	0x3ce2b833	0.027675724
205	0xbdcb9d82	-0.099421516
206	0xbdeb8b84	-0.1150122
207	0x3d0d5f63	0.034514796
208	0x3e2cec72	0.16887072
209	0x3e282bf3	0.16423015
210	0xbd7bfaa4	-0.061518326
211	0xbc37af60	-0.011211246
212	0x3ecb7226	0.39735526
213	0xbd84d5d3	-0.06486096
214	0xbc9fd804	-0.019512184
215	0x3ca87793	0.02056483
216	0x3d0356fe	0.032065384
217	0xbdc0d2f4	-0.09415236
218	0xbd8f4dbc	-0.069972485
219	0x3cd09d95	0.025465766
220	0xbb86afb5	-0.0041103014
221	0xbd4bd4e2	-0.049763568
222	0x3d8c0467	0.06836777
223	0xbd7dbc94	-0.06194742
224	0xbc008e51	-0.007846431
225	0xbb5b8ecb	-0.003350186
226	0x3c98b0a7	0.018638922
227	0x3ba83b1c	0.0051339995
228	0x3c3ddeed	0.011588794
229	0xbd8ec78c	-0.06971654
230	0xbcc45efe	-0.023971077
231	0xbdc1b220	-0.09457803
232	0xb99ccccb	-0.0002990722
233	0x3e196a29	0.14981903
234	0x3e5637ae	0.20919678
235	0xbe1fea49	-0.15616716
236	0x3df22697	0.11823767
237	0x3d210024	0.039306775
238	0x3e582113	0.21106367
239	0xbda9ded8	-0.08294457
240	0xbd526a04	-0.051370636
241	0x3eb9554f	0.36197898
242	0x3ed7646f	0.42068812
243	0xbddd36ca	-0.10801466
244	0x3e9ee056	0.3103053
245	0xbc5f607b	-0.013633843
246	0xbc2e0c64	-0.010623071
247	0xbda87223	-0.08224895
248	0xb99bce51	-0.00029717622
249	0x3cd9e825	0.026599953
250	0xbe1568d0	-0.14590764
251	0xbccd2b94	-0.025045194
252	0x3c8ae83e	0.016956445
253	0x3ec10214	0.37696898
254	0x3d50b0af	0.05094975
255	0x3eb97fa8	0.36230206

out.weight f4 [7, 256]
0	0x3e3d000e	0.18457052
1	0x3e2bf681	0.16793253
2	0x3e886504	0.2663957
3	0xbd72aeb1	-0.05924863
4	0x3dfd22b2	0.12360133
5	0x3c9ac69a	0.018893529
6	0xbe4303ed	-0.19044466
7	0xbdc9695d	-0.098345496
8	0xbeb310c6	-0.34973735
9	0x3ddd9992	0.10820307
10	0xbc9f03a5	-0.019410918
11	0x3e219e0d	0.15782948
12	0xbc77a3a7	-0.015114701
13	0x3e83b398	0.25722957
14	0xbcccc026	-0.024993967
15	0xbe319c79	-0.17344846
16	0x3e9355b1	0.28776315
17	0xbbc99ad3	-0.0061524897
18	0x3d193e92	0.037413187
19	0x3e21798c	0.15769023
20	0x3e06708d	0.13128872
21	0x3d3728a7	0.044716503
22	0x3e852607	0.26005575
23	0x3e562264	0.20911556
24	0xbc039a02	-0.008032324
25	0x3da35380	0.07974911
26	0x3df71ad6	0.120656654
27	0x3e04bb59	0.12962092
28	0x3d24efcc	0.04026775
29	0x3db0448a	0.08606823
30	0x3d291ebd	0.04128908
31	0x3d9a8358	0.07544583
32	0xba4bd452	-0.00077754736
33	0xbd662953	-0.056191754
34	0x3dce32f5	0.10068313
35	0x3db11388	0.086463034
36	0x3e44f9b3	0.19235878
37	0x3dc2f0f2	0.09518613
38	0xbd0468be	-0.032326452
39	0xbcc55ebb	-0.024093023
40	0x3b93ee9d	0.004514529
41	0xbdb53751	-0.088484414
42	0xbcce5883	-0.02518869
43	0x3da907bc	0.08253428
44	0x3e23b67d	0.15987583
45	0x3c896442	0.01677144
46	0x3bd0c9b5	0.0063717016
47	0xbd3e34e3	-0.046437155
48	0xbe01e819	-0.12686194
49	0x3e26db54	0.16294605
50	0x3e21429f	0.1574807
51	0x3dc6652c	0.09687266
52	0xbdddad63	-0.108240865
53	0x3e885554	0.266276
54	0x3e4e1d6c	0.20128411
55	0xbe395098	-0.1809715
56	0xbdb9000c	-0.09033212
57	0x3d42bf2a	0.04754559
58	0xbdd27f6c	-0.1027821
59	0x3dc7b27f	0.09750842
60	0x3c454908	0.012041338
61	0xbe191aa5	-0.1495157
62	0x3ef5a15b	0.47974667
63	0xbeb33f96	-0.3500945
64	0xbdca8f33	-0.09890594
65	0x3db3b541	0.08774806
66	0x3e1a0c6c	0.15043801
67	0x3e8596c4	0.26091588
68	0xbd9e60d2	-0.07733311
69	0xbd990554	-0.074717194
70	0x3da69410	0.081337094
71	0x3d4232b1	0.047411624
72	0xbd904d52	-0.07045998
73	0x3e73a90b	0.23794954
74	0x3e2bf293	0.16791753
75	0x3da05d25	0.07830266
76	0xbd4b1ff3	-0.049591016
77	0x3e4bb0b4	0.19891626
78	0x3b350fc0	0.0027627796
79	0x3e8190bd	0.2530574
80	0x3dfcf111	0.12350667
81	0x3ce7c9b4	0.028294422
82	0xbd94a12f	-0.07257306
83	0x3c0a01ca	0.008423278
84	0x3d1df3f4	0.03856273
85	0xbe2c893b	-0.16849224
86	0xbe7c56b2	-0.24642447
87	0xbc1248f0	-0.0089285225
88	0x3db0e0b3	0.08636608
89	0x3e641ddd	0.22277017
90	0xbbf29f75	-0.0074042627
91	0x3dd1268d	0.10212431
92	0xbe6dad37	-0.23210607
93	0x3dae833b	0.08521124
94	0x3cb27c61	0.021787824
95	0x3ce45e47	0.027876986
96	0xbce03870	-0.027370661
97	0xbcd53f84	-0.026031263
98	0x3f1ff3e4	0.6248152
99	0x3d9d45c3	0.076793216
100	0x3e60bd33	0.21947174
101	0x3e8630d9	0.26209143
102	0x3e3d3b32	0.18479612
103	0x3e932656	0.28740185
104	0x3e55a076	0.20861992
105	0x3d2599e9	0.040429983
106	0xbdf4bedf	-0.11950468
107	0x3dc5aeb1	0.0965246
108	0x3e80dbac	0.25167596
109	0x3d7428dc	0.05960928
110	0x3d8afdb5	0.06786672
111	0x3e8e9956	0.2785136
112	0xbd6062b1	-0.05478162
113	0xbbea9197	-0.007158469
114	0x3eb815db	0.35954174
115	0x3e0c37c6	0.13693151
116	0x3d500eb8	0.050795287
117	0x3e904aa4	0.28181946
118	0x3d2570f0	0.04039091
119	0x3de9582c	0.113937706
120	0xbdbf4e16	-0.093410656
121	0xbd64610d	-0.055756617
122	0x3d65306a	0.055954374
123	0x3eaa172e	0.3322081
124	0x3c2e23d3	0.010628658
125	0x3cda9e7d	0.026686901
126	0x3e947c1a	0.29000932
127	0x3e324202	0.17407992
128	0x3dd911da	0.10599108
129	0x3d1229d8	0.035684437
130	0x3e065ce8	0.13121378
131	0xbde2eb4b	-0.11080035
132	0xbe118002	-0.14208987
133	0xbe2cc26c	-0.16871041
134	0xbe127295	-0.14301522
135	0x3e036042	0.12829688
136	0x3e590756	0.21194205
137	0x3cef34a1	0.0291999
138	0xbcd4cbd2	-0.025976095
139	0xbddb1a43	-0.106983684
140	0x3e2bdcfb	0.16783516
141	0x3cd361be	0.025803443
142	0x3deae6fc	0.11469838
143	0x3e834ae8	0.25643086
144	0x3ea6edae	0.3260321
145	0x3e9937df	0.2992544
146	0x3e4ca57c	0.19985002
147	0x3db8497e	0.089983925
148	0x3e04c2a4	0.12964875
149	0x3e37713c	0.17914289
150	0x3db00aa4	0.085957795
151	0x3d0ffe60	0.0351547
152	0x3e288036	0.16455159
153	0x3da462d4	0.080266625
154	0xbe7bfc1b	-0.2460789
155	0x3e13fe52	0.14452484
156	0xbe0aa2a2	-0.13538602
157	0x3e43c8db	0.19119589
158	0xbe30a7c4	-0.17251498
159	0xbdba5697	-0.09098547
160	0xbc8712e1	-0.016488494
161	0xbc9907be	-0.01868045
162	0x3cf64655	0.030062834
163	0xbca326e7	-0.019916011
164	0x3de80af6	0.11330216
165	0x3ca5fe09	0.020262735
166	0x3dfbf4f9	0.12302584
167	0xbdb48861	-0.08815075
168	0x3e4d7f35	0.20068057
169	0x3e9b5f17	0.30345985
170	0xbdcb44e0	-0.09925246
171	0x3dbab56b	0.09116634
172	0x3d9e3bbe	0.07726239
173	0x3e7529ce	0.23941728
174	0x3eb7f7c7	0.35931227
175	0x3e5bc846	0.21463117
176	0x3e479b4c	0.19492835
177	0x3de7e1ba	0.11322351
178	0xbdca32c4	-0.09872964
179	0xbf1ba37a	-0.6079632
180	0x3d65ee72	0.056135602
181	0x3e642cfc	0.22282785
182	0x3e95899b	0.29206547
183	0x3ebdc855	0.37066904
184	0x3e086c65	0.13322599
185	0x3dc2f6de	0.095197424
186	0xbd2616b6	-0.040549003
187	0xbde08a31	-0.10963858
188	0x3e339c31	0.17540051
189	0x3bd4713e	0.006483226
190	0xbc2795a4	-0.010228548
191	0x3e44bf03	0.1921349
192	0x3da9464b	0.082653604
193	0x3e70736e	0.23481533
194	0x3e1017ee	0.14071628
195	0xbd683817	-0.056694116
196	0x3d0b92ca	0.034075536
197	0xbccf44e9	-0.025301414
198	0xbe57a58f	-0.2105925
199	0x3e278f79	0.16363324
200	0x3ec5b69e	0.38615888
201	0xbe37766f	-0.17916273
202	0x3ef7f15d	0.48426333
203	0x3e5b7a05	0.21433266
204	0xbd13c0cf	-0.03607255
205	0x3e139a93	0.14414434
206	0xbe019df0	-0.12657905
207	0x3db21a9e	0.08696483
208	0x3e533e21	0.20629169
209	0x3dedf6bf	0.11619329
210	0x3dc8c3e1	0.09802986
211	0x3d33980d	0.04384618
212	0x3e1a1271	0.15046097
213	0x3c311bba	0.010809833
214	0xbcbebe9a	-0.023284245
215	0x3cec0208	0.028809562
216	0x3e2676d2	0.16256264
217	0xbd4eecb4	-0.050518706
218	0xbdf17d29	-0.117914505
219	0xbd7be7aa	-0.06150023
220	0xbee2fe4f	-0.44334647
221	0x3c9a3249	0.018822806
222	0xbd120dab	-0.035657566
223	0xbde9e6ea	-0.114209965
224	0x3d868598	0.0656845
225	0x3c22b1bb	0.00993007
226	0x3d5e3dc8	0.054258138
227	0xbb9f3042	-0.0048580477
228	0xbe353d91	-0.17699267
229	0x3e361a2d	0.17783423
230	0x3d5a023f	0.0532248
231	0xbc384143	-0.011246028
232	0x3d6b7eb4	0.05749388
233	0x3eab8970	0.33503294
234	0x3f03916c	0.5139377
235	0xbcc9b086	-0.024620306
236	0x3e0add79	0.13561048
237	0x3d9eff39	0.077635236
238	0x3e982b59	0.29720572
239	0xbc5a570a	-0.013326416
240	0xbc66bafc	-0.0140826665
241	0x3ee0785e	0.43841833
242	0x3e58788c	0.21139735
243	0x3e124fa4	0.14288193
244	0x3d9d1ed6	0.07671897
245	0xbcb2a372	-0.021806452
246	0xbdc3613b	-0.095400296
247	0x3d727d5e	0.05920159
248	0x3d6d9b21	0.05800927
249	0x3d06f348	0.032946855
250	0xbdc0763f	-0.09397554
251	0xbd025cb3	-0.031826686
252	0x3ddf6bad	0.109092094
253	0x3e64f1c5	0.22357853
254	0x3d29b80c	0.041435286
255	0x3e625c0d	0.22105427

out.bias f4 [7]
0	0x3e4ed6f7	0.2019919
1	0x3e731eb6	0.23742184
2	0x3e6a6536	0.22890171
3	0x3e9bf99c	0.30463874
4	0x3e9ec57f	0.31010053
5	0x3dd1bc61	0.102410085
6	0x3e39db33	0.18150024
